29_dagmm.pth (torch, 322293 bytes, 16 tensors)

encoder.0.weight f8 [128, 118]
-0.0008357363952794029 0.10371860511244753 -0.2547309914110733 -0.02979935315612567 0.14138070451272525 0.006362149828618323 0.16692544958183927 0.17397231600540006
0.028975613694673 0.03570954924166865 0.016744219035682364 -0.01517787027745136 0.12461218750980863 0.07910011981436817 -0.3161091692749664 0.11728558581631342
0.05706855843073516 0.05387663337338831 -0.02875226581297963 -0.03741081339403821 0.10638334353080166 0.029706946976757128 0.18305599200689088 0.07755741452910703
0.18913658392786314 0.13277750884482678 0.03587104947893749 0.11750986858771331 -0.007998103960993045 0.008268404523271461 -0.01825045090785586 0.01163002583299769
0.0317319568712892 -0.013908591354371369 0.044075478677134454 -0.014028024455157656 0.1195620497744059 0.06516755138183887 0.04966391458451675 0.18312654277389354
0.08238181373337553 0.09314281184208091 -0.19923888680936164 0.08652432814982994 -0.09068075704800817 -0.03736978728913525 0.06573134005774803 -0.022666021184516286
-0.19140649402197504 0.05484127253293991 -0.03360942531418323 -0.03398776555574169 0.12968620532273575 0.2269243178076831 0.11593522898709221 0.039493333763067344
0.0407421652793877 -0.03306037380115835 0.03499089901098382 0.1045998257635989 0.06544474512338638 0.06548497825860977 0.09327089009967454 -0.01560276022759473
-0.03342132608654196 0.02641986525757443 0.10150810504653054 -0.029032194969839442 0.1171495910294426 -0.058503223267478664 -0.07446239821475625 0.06214795761539782
0.05127233178826465 0.003125822475899743 0.02008685926507699 0.059234435754834475 0.031406463319663284 0.004281088666794483 0.03646558164868041 -0.06667625307894604
0.04101433526989802 0.05622906558450657 0.09023425246124848 -0.11198809320148237 -0.08550853327362792 0.09915162528027169 0.1408224800737956 0.05647022460666311
0.211061329054804 0.1032072764882122 -0.033032365817648277 -0.08817633150524683 -0.07099351131025491 0.08998464648347887 -0.08337894676646226 0.08935590152284215
-0.08881017565727234 -0.03558586910367012 -0.02735342307437099 -0.056985126290931214 0.021808651570541418 0.048242125401890566 -0.033719941246714756 -0.053482673028439245
0.009720253442494657 0.10794559806802671 -0.08536422139689624 0.10085845285307371 0.1564504005453808 0.019827541618062456 0.07873812085926428 -0.013260232145267599
0.047502791594998726 0.03633375043743436 -0.02703708559873427 -0.058434904783972764 0.011953097753972994 0.022327494461054736 -0.010071235140838145 0.15898440951399978
-0.22253104263907544 0.011297068937148524 0.04953018928637776 0.144854783805867 0.12278603898620627 -0.01731772466082806 0.02416456842154925 0.05258430194669929
-0.1932901612499595 -0.016105676598666404 0.02480128260051645 0.1148754987742957 -0.2314947791175738 0.0503872866605558 -0.032753790402027166 0.04171246502932562
-0.04539419066140948 -0.17457034342400393 0.12476207417499496 0.04206408176911346 -0.017183227345109554 0.053936443518319846 0.03571199133388625 0.13624229773728613
-0.030154749850982217 0.11067912510398921 0.04289579952927687 0.0815310524019217 0.014873332295981662 0.10720530448638836 -0.02313530587421893 -0.08582052821673287
-0.10417069022365466 0.024742416471411812 0.09199632925219628 0.11977345570603153 0.09722186363458327 0.06936642789748272 0.11075582938788699 0.06937240260401462
-0.0012431818402388578 0.11032219382591518 0.024831817814693128 0.12835320311906587 0.08100609408925273 0.019010511962958148 -0.09470695698695286 -0.07752722501754761
-0.11008247952668017 -0.06761179469588632 -0.013972809898554686 0.06490768507297386 0.05423325803163647 -0.02218809975154449 -0.08761796645287115 -0.042771213769454045
0.020775943147785254 -0.033070427688921544 -0.035283852368593216 -0.02561565488576889 0.014678799403875252 -0.07776139199625161 -0.1361539950934146 -0.06571153680080127
0.029362241734135323 0.018416242975790954 0.013805934520898384 -0.10851957235472998 0.16161226167600246 0.03352551461987289 0.008686950580411176 0.026673793532095532
-0.0005051002604520778 -0.060492769292914715 0.014133146638338699 0.06614929454162485 0.009136578886236417 -0.1574457397623915 0.0054593851658100824 0.07956575765338844
0.1983034656465403 -0.030517243798018647 0.011023145902624298 -0.03607185445522581 0.06236401332768299 -0.016993700870077837 0.03132250991109955 0.06599028926420693
-0.017234225002423907 -0.009030562270992006 0.059586949649077056 -0.067334126147088 0.05296626204030291 0.032038246129788076 0.06961444765329361 0.08435916155576706
0.0021064311318865613 0.05108582320227362 0.06213739270586745 0.018911282011826833 -0.03300778339386728 -0.054951952570913065 0.029360915819445894 0.1471783808488851
-0.003876424633987619 0.06942548835137674 -0.02525614590637979 0.0848766615929382 0.11497029238420002 -0.015057785549256072 0.057228386950637304 -0.10919612813885016
-0.07308764586747862 0.01250623630324659 0.15858482552988412 -0.012406403293051019 0.07994983852191681 -0.038773438122568754 0.15272489480541568 -0.059718288481235504
-0.060725435614585876 -0.08544041582803068 -0.07215703201526724 0.04841468695149734 -0.07531134270255292 -0.11214544516634137 -0.08194690823000499 0.040536493305480266
-0.07180609179965305 -0.060109517412601246 0.30230804994403326 -0.05101688349276109 0.18482827221915582 0.016962574189874954 -0.05799565864528298 0.00036820653385503856
00000000: 3ec2 2e3e aa62 4bbf e5d7 f170 4d8d ba3f
00000010: 8bd8 5837 834d d0bf 5874 fdbc b883 9ebf
00000020: bd73 154f c318 c23f bf80 2397 320f 7a3f
00000030: ff7b 6929 d05d c53f 6f87 d38f b944 c63f
00000040: 31f4 cc84 c8ab 9d3f 6ab5 4ba4 8548 a23f
00000050: 440b 9f84 6525 913f d677 b743 9315 8fbf
00000060: 48a3 0996 95e6 bf3f 615f b6cb e73f b43f
00000070: ff1b 00f4 213b d4bf 778e 5f9b 6d06 be3f
00000080: c803 2e10 1738 ad3f 0dee b6d4 b795 ab3f
00000090: 211c 69e5 3b71 9dbf 359b 1698 8227 a3bf
000000a0: 1dce 4d55 f03b bb3f 9fad ea76 7f6b 9e3f
000000b0: d2d2 80f5 606e c73f 18ff f67e cdda b33f
000000c0: 2842 39a9 a035 c83f 4502 1179 dafe c03f
000000d0: 703d c5b0 b05d a23f da9e 8a72 2015 be3f
000000e0: 622f 8a57 4f61 80bf f0f0 2378 06ef 803f
000000f0: cc5e 2507 3fb0 92bf d2ba d5a4 7bd1 873f
00000100: 5623 00ca 2b3f a03f b3ed 0088 1b7c 8cbf
00000110: df9a f2a6 0f91 a63f 1d60 1992 b9ba 8cbf
00000120: 32b1 9f55 9e9b be3f 9305 f215 d2ae b03f
00000130: b919 dd71 8c6d a93f 5128 1fc8 b070 c73f
00000140: 7a1f c57b f916 b53f bd1e b812 35d8 b73f
00000150: 0c05 78eb a880 c9bf 8a3e b657 7526 b63f
00000160: c1d0 e5a5 da36 b7bf 07d7 87fc 2122 a3bf
00000170: d6ca dee3 c4d3 b03f d42b dfee c235 97bf
00000180: df7f 080c 0280 c8bf 0000 00c0 2714 ac3f
00000190: 84a0 1f2d 4135 a1bf 4253 0d2b d866 a1bf
000001a0: 333f 4dbd 8e99 c03f 8d57 d325 db0b cd3f
000001b0: 5a2e f460 eead bd3f 1743 d861 7838 a43f
000001c0: b3ea e236 28dc a43f 42fd 8910 4aed a0bf
000001d0: 2cd3 d1bd 53ea a13f ad6b d2de 0dc7 ba3f
000001e0: 0000 00a0 fcc0 b03f 0000 00a0 9fc3 b03f
000001f0: 0c9c a5de 99e0 b73f 6921 3d07 57f4 8fbf
00000200: 47b1 0f9d 991c a1bf bbe9 fb24 cf0d 9b3f
00000210: 022b 7467 6ffc b93f 20cb b49f 9dba 9dbf
00000220: 3b13 36fe 83fd bd3f bbef 496d 22f4 adbf
00000230: 1c36 1dbd f70f b3bf e051 f16a dbd1 af3f
00000240: a4c5 70f8 5d40 aa3f cfb0 d329 539b 693f
00000250: 15cf 7d4e a691 943f c461 bad8 f953 ae3f
00000260: 9794 ae09 8214 a03f b0e3 0afd 0b89 713f
00000270: b0ad 38e1 9dab a23f 24d6 64e6 b111 b1bf
00000280: 2a83 4db9 d4ff a43f df49 8a5b 0eca ac3f
00000290: 5fd1 4c8b 9719 b73f 067e d76d 40ab bcbf
000002a0: c66c f021 e3e3 b5bf 2a8c ec3b 0062 b93f
000002b0: 38b2 3a95 7806 c23f 064c c44f aae9 ac3f
000002c0: 87ce dec0 0e04 cb3f c3e1 39c5 ca6b ba3f
000002d0: d6e8 ca45 9ee9 a0bf 6fa6 185c b992 b6bf
000002e0: b245 4e79 a12c b2bf d4e5 c9d9 3b09 b73f
000002f0: fe70 8999 5258 b5bf aac5 be42 07e0 b63f
00000300: 0000 0080 43bc b6bf 0000 00a0 4f38 a2bf
00000310: 2efd 2626 8902 9cbf 4f53 8e8b 272d adbf
00000320: d4b3 0fd5 0155 963f 6303 c81d 31b3 a83f
00000330: 735f c179 bd43 a1bf 229f 1eb7 1462 abbf
00000340: dc9e 2755 36e8 833f a707 739d 52a2 bb3f
00000350: a7ee 25fb 6dda b5bf b873 870c dcd1 b93f
00000360: efed e414 9106 c43f c516 3dcb ab4d 943f
00000370: 3bfe 0976 2e28 b43f b7d8 353b 2e28 8bbf
00000380: d30a bd30 4952 a83f 3f57 bd5b 569a a23f
00000390: f7ee b319 9caf 9bbf 45ec fb09 2eeb adbf
000003a0: f27d 839f dd7a 883f bb22 0cca 04dd 963f
000003b0: a857 7b4c 3aa0 84bf 3edf b7e3 9959 c43f
000003c0: e163 3daf e57b ccbf 7374 01ed ea22 873f
000003d0: 20a3 4c5e 055c a93f c3c3 8eff 998a c23f
000003e0: 1ce4 d9e5 e76e bf3f 86d0 3cd4 bcbb 91bf
000003f0: 84ba 5ebc 98be 983f 92c2 4962 54ec aa3f
00000400: a683 9a64 bbbd c8bf efbb 15a9 017e 90bf
00000410: 101b ace6 8165 993f e0e7 580e 7b68 bd3f
00000420: c59a c0f4 9ea1 cdbf 2fba aec8 5ccc a93f
00000430: 9c88 31d5 1ac5 a0bf f7e2 4512 565b a53f
00000440: 9f66 a348 e83d a7bf 5dc5 ed2d 5258 c6bf
00000450: d8db 5c44 68f0 bf3f aeb8 115f 6c89 a53f
00000460: 7aaa f2dd 7a98 91bf 628d f2b9 8e9d ab3f
00000470: 9049 b595 d748 a23f 7088 8e3a 6370 c13f
00000480: 8253 b701 e3e0 9ebf 25e9 ab96 7755 bc3f
00000490: 5a60 3a30 70f6 a53f 2fba ac13 38df b43f
000004a0: 4aaa 59de e875 8e3f f30c ba8c ce71 bb3f
000004b0: b56e 7318 c8b0 97bf 152d 048a 55f8 b5bf
000004c0: 285c b62b eeaa babf f75f 4676 1356 993f
000004d0: ca7f 7d49 128d b73f 03b2 2f23 79a9 be3f
000004e0: e646 c434 88e3 b83f 5991 428b ffc1 b13f
000004f0: e1f4 0f79 7e5a bc3f 44df 6dc8 63c2 b13f
00000500: f315 3256 485e 54bf f459 8146 133e bc3f
00000510: 0148 a815 836d 993f 95da ddb4 e06d c03f
00000520: 9fd9 e3bc d0bc b43f 2bfd a4dc 7d77 933f
00000530: a86f f612 b73e b8bf 0000 0000 d3d8 b3bf
00000540: 91ff 6d89 5d2e bcbf 42ee 0aaf 014f b1bf
00000550: d550 61cc c69d 8cbf e9c1 a540 ca9d b03f
00000560: bfeb 332b 76c4 ab3f ca4e 2c2b 7ab8 96bf
00000570: f204 758c 216e b6bf 2237 b3c8 1be6 a5bf
00000580: 1203 74f1 4946 953f 40fd c66a 9bee a0bf
00000590: 0000 00a0 b910 a2bf 0000 0080 fd3a 9abf
000005a0: 6cd1 121b eb0f 8e3f 1ded 83ab 2be8 b3bf
000005b0: d3ae 127e 7e6d c1bf f482 87a5 78d2 b0bf
000005c0: 9101 f1af 2211 9e3f 2a52 2f25 b5db 923f
000005d0: b755 102a 4946 8c3f f84d 3d4e f0c7 bbbf
000005e0: 9ef8 43e9 b5af c43f f572 bf99 412a a13f
000005f0: d89e 28c5 76ca 813f bfbd 85fb 5f50 9b3f
00000600: bfa5 c78c 168d 40bf 83dc 8383 e8f8 aebf
00000610: 5f55 cfd4 d6f1 8c3f 2eb2 b500 29ef b03f
00000620: bc13 1cdc 32b6 823f 9445 9697 2e27 c4bf
00000630: 4d0e e58b 945c 763f 36b5 00e7 6b5e b43f
00000640: 2753 d109 0262 c93f d762 4e90 e93f 9fbf
00000650: b3da 3499 4d93 863f b7ed 6196 0278 a2bf
00000660: 3821 610b 2dee af3f 0e64 e6f5 cb66 91bf
00000670: 13c4 6407 8109 a03f 194c 3e56 bde4 b03f
00000680: e67d 0743 d9a5 91bf d47c f28c 9d7e 82bf
00000690: feb9 0540 2e82 ae3f f8db b42d cf3c b1bf
000006a0: 8749 82d6 641e ab3f ba80 b226 5167 a03f
000006b0: 0000 00a0 40d2 b13f 0000 00e0 8f98 b53f
000006c0: dccb 539a 8141 613f 50d1 e2c7 eb27 aa3f
000006d0: da91 0feb 78d0 af3f 6c9e 10a7 7a5d 933f
000006e0: 5756 616c 65e6 a0bf a86d 498e a922 acbf
000006f0: 4288 e6b4 c910 9e3f ff4b 36be bdd6 c23f
00000700: e888 e8a0 73c1 6fbf b05d fa69 dec5 b13f
00000710: ba7c c342 bfdc 99bf 833e bc15 7aba b53f
00000720: 033c cd6d b16e bd3f 3eb7 dfc3 9dd6 8ebf
00000730: 172e b604 0a4d ad3f a8c8 3407 47f4 bbbf
00000740: 3811 be38 dfb5 b2bf 5b12 599f de9c 893f
00000750: ca77 a5ef 814c c43f 55b4 3c43 8768 89bf
00000760: 3ea9 c5b5 9777 b43f 343c 61b1 1cda a3bf
00000770: e2b5 3c46 7d8c c33f 0000 0040 6593 aebf
00000780: 0000 0080 6717 afbf b3ef bc4f 6cdf b5bf
00000790: 6897 ae1c e278 b2bf d49c 3452 cfc9 a83f
000007a0: 51e1 eca9 9a47 b3bf 1682 625b 90b5 bcbf
000007b0: eb2e dbfa 78fa b4bf 7147 1502 33c1 a43f
000007c0: 92de ee4f e261 b2bf 6a51 eeb6 acc6 aebf
000007d0: 26f0 f4dc 0359 d33f 5b5e 4a8c e21e aabf
000007e0: d65a 47ec 73a8 c73f 4f1f 9b15 a35e 913f
000007f0: 5d08 6262 9bb1 adbf f08e 6505 7b21 383f

encoder.0.bias f8 [128]
0.05653503650593847 0.025310052774563708 0.09242985318265688 0.07859701747298636 0.06377342728741794 -0.018037291957643656 0.13046354226733023 -0.07727594786878529
0.12436988744709473 -8.350079467808374e-05 0.026180720735373333 0.017662625795849502 0.09264965169450554 -0.0012123332377466938 0.13912690572072156 0.1364737338588573
0.07855637291869319 0.04217359276307634 0.06600842744173024 0.07525914489087188 -0.027735876332524556 0.1243128995283226 0.11146025627941528 0.017832778549178467
0.11563138170151 0.05320455019100045 0.05011268635709733 -0.04400850712639011 0.031342269388654746 0.052256379447732516 -0.012097718750891823 0.07161477900293221
0.018982346941133297 0.007571850756899174 0.09925333551966316 0.04410372356607409 0.1575380655256275 0.03136573818189602 0.047220227464362254 -0.006684271112281878
0.04436294076541116 0.03985593352051027 0.06957617470548956 0.0731558174721309 0.003016690304271186 -0.039376179210022934 0.12441496472359544 -0.006637199148536883
-0.0442567196248507 0.16247859562916847 -0.026676518223257114 0.10055861554197028 0.08180148188742471 0.0954014074718104 0.01798638562083304 0.11124975557696853
0.10493822988282342 0.021850963127587088 0.14356052122484733 0.13073927850665773 -0.017811954497588926 0.09526544739758586 0.15181511750592447 0.0006752773034015894
0.028701633841289455 -0.06017403207286469 0.09335318459710662 0.06694634165678648 0.05384230445197696 -0.0033469036304841046 0.08079524900341103 0.10840920215902215
0.14464933650321427 0.02154155762647163 0.11635946691809339 0.07818242059590211 0.05172107023870901 0.091231307953839 0.0512248307198324 0.03532233010109076
0.12837274829005382 0.12426310607090144 0.012011241388730115 0.1216970907831559 0.11026368776930263 0.1375541958269614 -0.08466041172182476 0.09204418796991289
0.06617105059847092 0.008539334212478947 0.04463970588268101 -0.027904807567186867 0.1481376258970648 0.11433144882637042 0.13490682145171426 0.11131263222115795
0.11244587150870387 -0.0007090847219019909 0.05985665126453647 0.10344741407260642 -0.022799082611024174 0.08455275620200622 -0.039215295281412 0.10162731298138439
-0.012485930077778635 0.131173936279554 -0.02396432549544893 0.1443001630453626 -0.012979013181813995 0.08199983268374308 -0.0016349494211306303 -0.03926141258302161
0.13141053413962892 0.09792906951200553 0.1392615916867135 0.00715892920843747 0.1506308447654367 0.03143035875895975 0.1534063256001118 0.053664327835014
-0.010062695430116796 -0.051764132596896724 -0.028210108304151663 0.03852732713856405 0.05188314208962068 0.04486262938203379 -0.011402632388575548 0.007760862888404467
00000000: 3c0a be09 29f2 ac3f 2d07 b5e3 e0ea 993f
00000010: b3f5 979c 7ba9 b73f dc0f 9c23 ef1e b43f
00000020: aea4 8d90 7453 b03f 3414 442c 5e78 92bf
00000030: 3be3 ad83 07b3 c03f 3524 dd44 5bc8 b3bf
00000040: e645 3177 b4d6 bf3f ed56 b5ba a4e3 15bf
00000050: 9765 606d 1ecf 9a3f 155f 9ec0 2616 923f
00000060: 5681 0338 e3b7 b73f 8213 e9e6 e4dc 53bf
00000070: de36 0813 e9ce c13f 10e9 d7a7 f877 c13f
00000080: c602 943c 451c b43f 352f 58f3 c697 a53f
00000090: 0c64 1fa5 ede5 b03f 0cfe 07ee 2e44 b33f
000000a0: f0ab 1827 cb66 9cbf b9f0 f15d f8d2 bf3f
000000b0: 2a1c 86cb a888 bc3f 2e81 a982 c142 923f
000000c0: 809d ccaa 049a bd3f 8f31 2376 a03d ab3f
000000d0: c270 09ba 5ea8 a93f ca0e b575 4888 a6bf
000000e0: 676d 030c 180c a03f 6d83 7821 59c1 aa3f
000000f0: bd5a 2153 b0c6 88bf 1f55 ba9d 5855 b23f
00000100: 5904 41bd 1b70 933f 21ec ef35 a903 7f3f
00000110: 1d6c 13a6 aa68 b93f d43b b264 c394 a63f
00000120: e661 a713 352a c43f 6f8b 6987 2b0f a03f
00000130: 7d96 56e9 3f2d a83f 0994 325d f760 7bbf
00000140: a3d0 7b47 bdb6 a63f 2a56 0b36 ff67 a43f
00000150: 35dc f082 becf b13f 0c11 8ef3 56ba b23f
00000160: ce3f 5e46 75b6 683f a59f e553 1d29 a4bf
00000170: 1def 9ebc a8d9 bf3f 7be6 7a94 9b2f 7bbf
00000180: c47d d516 d1a8 a6bf 257e 433f 19cc c43f
00000190: bf32 5cd5 1651 9bbf e573 159d 35be b93f
000001a0: 0588 7821 f1f0 b43f a373 1505 3a6c b83f
000001b0: 6e13 0fe8 056b 923f 641d e42d dd7a bc3f
000001c0: 3065 7259 3bdd ba3f ea8b 1350 1960 963f
000001d0: c526 d4ef 3060 c23f ba8e be8e 10bc c03f
000001e0: 6e10 2e08 4c3d 92bf b4ed 02fd 5063 b83f
000001f0: ccf8 5c82 ad6e c33f 3619 88f7 a220 463f
00000200: e7aa c20a f663 9d3f b68f a477 21cf aebf
00000210: 2870 d28a fee5 b73f 98b3 003c 6523 b13f
00000220: 8868 86f1 3791 ab3f 596a 5834 f76a 6bbf
00000230: c64e 2458 ffae b43f 8fc3 db99 b4c0 bb3f
00000240: 0aaf d594 de83 c23f 6dd9 0a76 fd0e 963f
00000250: af42 fee8 bbc9 bd3f 42de 945b c303 b43f
00000260: a5f5 6022 2f7b aa3f 8575 085c ef5a b73f
00000270: 3ea0 5e19 243a aa3f 4095 34b9 c415 a23f
00000280: e73c cda9 846e c03f c284 acf8 b4cf bf3f
00000290: 0377 9787 5999 883f 6597 ee60 8a27 bf3f
000002a0: 81cf e7b4 3d3a bc3f 7d8f 403a 609b c13f
000002b0: 2c73 9c03 4eac b5bf 791e 1e39 3590 b73f
000002c0: 3e2c 4302 96f0 b03f 28b0 6009 127d 813f
000002d0: 5804 bdf9 03db a63f 0be5 9bef 1393 9cbf
000002e0: 187a 4479 2cf6 c23f 2c12 9d69 d344 bd3f
000002f0: f33a 1271 a044 c13f 4084 0513 fc7e bc3f
00000300: d739 b3ac 40c9 bc3f 589f 67d8 3b3c 47bf
00000310: 862e 42ef 87a5 ae3f 7b30 4c9c 877b ba3f
00000320: 68c9 c588 a458 97bf 7a9d acda 3fa5 b53f
00000330: e229 79f5 0614 a4bf b8a9 a261 3f04 ba3f
00000340: f7ec c02a 3992 89bf 4542 34bb 4eca c03f
00000350: 4538 18a9 1a8a 98bf a72c 8b80 6d78 c23f
00000360: 22b3 33a9 bd94 8abf 4676 a7e7 f0fd b43f
00000370: 0ff6 d692 79c9 5abf eee2 1366 121a a4bf
00000380: 7563 3d75 0fd2 c03f f8bb e126 e111 b93f
00000390: 4911 f1e6 52d3 c13f c0a2 316d ae52 7d3f
000003a0: dea8 041c df47 c33f 844b f1d5 a317 a03f
000003b0: 64db b987 d1a2 c33f 26c3 060a e479 ab3f
000003c0: 6674 411e c09b 84bf a10d 3811 d480 aabf
000003d0: b1f0 5452 1ce3 9cbf 48f6 1f94 dab9 a33f
000003e0: 462f fa5c 6d90 aa3f 814d 040c 3cf8 a63f
000003f0: cbf3 9369 435a 87bf de03 b6c4 dac9 7f3f

encoder.2.weight f8 [32, 128]
-0.04213155535730618 -0.09548132773356918 0.15664334768900182 0.09694602876936018 0.11024868050494648 0.114291683530059 -0.04132330995191796 0.022199796155802844
-0.010258048380949692 -0.10596338163339945 0.17718841095631138 0.1313166679136637 -0.11268858393375034 0.03272609512408974 0.03934267670415327 0.12469779948483621
0.13293165127898487 0.14893383297301177 -0.15941981579304934 0.1614393087119404 0.11987118849241019 0.1365657445406834 -0.10344171362950032 0.12810796045592734
0.09574111239315637 0.08865196497079607 0.1882510182640991 0.07235076861298596 0.1123637599454809 0.18600575745410883 0.19171526850387322 0.09655585208150455
-0.12837627409608202 0.07950146267510197 0.11166567550744504 -0.07632983790869755 0.052491803908041375 0.1925142741172669 -0.19928302903071696 -0.1021556521227924
-0.03620775908098971 0.09622061108127883 0.12711439275742098 -0.03728973787028205 0.08400934891977742 0.1000452478301811 0.12316339614958588 0.11274643573949783
-0.06962137409451807 -0.08212845294186087 -0.0576361407772943 -0.1544823946280653 0.044626730671706374 -0.035822780724186425 0.05668766335307197 0.169920560877697
-0.11319593439597805 0.19039758583468067 0.03613409421375572 -0.05902893735148002 -0.09166683412216241 0.0309206544954851 0.1417643400576734 0.015843294494514982
-0.08538385261016218 -0.11377075071642015 0.03261696603814249 -0.1744450925040708 0.10748406688318504 -0.15423816273266933 0.09201906896550431 0.1550588145557942
0.07156867993784517 0.0850481491276888 -0.0026894532128491763 0.00062537377295014 0.05850057446906991 0.12305020819025905 0.1727875774948054 0.13955953596950993
0.14033096702692813 0.02349415562190991 -0.12314401557144636 -0.10370095771474658 0.15478754549920265 -0.005562207185604279 0.011113309338745847 0.16767986554005787
-0.10895780366023025 -0.29453589096142097 -0.36309173543784695 0.031189769504303945 0.1174750889449827 -0.03799616307842785 0.09506349442609621 0.19380798149007086
-0.019843217208966646 0.05493391752293079 0.12842479809641325 -0.07772876365144772 -0.13483388983201283 -0.045330128083314235 0.17341289673755095 -0.012308946529368339
0.15376049385668578 -0.22764309528997936 -0.020948667696848493 -0.09336597767092639 -0.04155873905582402 -0.06427555790640135 0.060771943046503414 0.15493975700438964
-0.12538212668367307 0.1967552606531494 0.016697971073873993 0.23190856541139976 0.11346358485772365 0.12339683963573296 0.04793928851993719 -0.336832815440953
0.03826053527902979 0.06151660531759262 0.04694173448368711 0.1595657976617136 0.027363979526180904 0.1468597131473335 0.062287831065530694 0.3095783517857904
-0.07790901511907578 -0.029107347182701575 0.0627174510136843 -0.038640737185801986 -0.008813158619932782 0.04017441564235822 -0.05920859449827388 0.06691170483827591
0.04122822888913474 -0.008870594203472137 -0.06735136371003417 -0.04744918816895262 0.07827144257946793 0.023137904224259275 -0.06948468695916965 -0.07939149117025195
-0.0027885064482688904 0.08442578464746475 0.03946483927638017 -0.008480559736530027 -0.046021416920813595 -0.046346667358844754 -0.042433638983570644 -0.019723515130387514
-0.0016324491148788681 -0.08633225411176682 -0.017748658668329895 -0.020047873258590698 -0.06568141281604767 -0.07767505198717117 -0.045537092678723516 -0.0644220209857616
0.046417718482148755 -0.06604872643947601 -0.020657337265444737 -0.08632292445725732 0.013435801391945463 -0.03933078423142433 -0.039973966777324677 -0.03782056444459239
0.03113554679502528 0.08125206083059311 -0.06883759982107494 -0.050171704433713146 -0.04907403210380048 0.042218798776266 0.0006887301403819735 0.014861209744582035
-0.05064232647418976 -0.012796724413160404 -0.015485073548670753 -0.035406745970249176 -0.002174141867946414 0.029387555241714925 0.03838186711072922 0.03941889852285385
-0.012072451412677765 0.061382268579614686 -0.014964302281929822 -0.023615139534227322 0.03940362688976601 -0.07550624247254491 -0.037919255696266724 0.052846654222908684
0.004363599670147228 0.04227154701948166 0.01686210472735391 -0.011205111096727472 -0.04896198628458394 -0.05762381774609467 0.02931298128119482 -0.07438798714316984
-0.03154107346624558 0.08539597830474871 -0.07261709993111237 0.020000870681440783 -0.029557591201573228 -0.08312143868904001 0.014594666659832 0.040806654415449777
0.03610328537714901 -0.015880785436977244 0.04489551201020034 -0.03320139683048106 0.05789537891376443 -0.04393910384432288 0.03173000098243645 0.02538465633565961
0.08451870910063104 -0.08429998904466629 -0.06141318380832672 0.04771169743380515 -0.06446481020312918 -0.0026267544083878125 -0.02738234115037963 -0.025795346709195
-0.07883556801321405 0.07270124273855899 -0.029921429215624764 0.01756929882972526 0.022037658594913648 0.025521480676557372 -0.012521393597126007 -0.04570390509365916
-0.011613100748024234 -0.0666427723984645 0.05966995956115067 0.06588397939166983 0.012778541812206383 -0.006421278736257929 -0.022724863035839156 0.0044982582330703735
0.014397702713994218 -0.06406063409401001 0.025079794944699585 0.00017012820689601594 0.05797377083126018 -0.07207051745071273 0.06561147758504743 -0.08752638846635818
-0.012385353953432257 -0.004218727295597218 -0.05402946071585375 0.043576500206066966 -0.0820476389555791 0.04229945130798513 0.024928087354574517 -0.006497040390968323
00000000: f14a c768 4492 a5bf e68c fedb 7671 b8bf
00000010: 7de8 baa3 e30c c43f 3e9e 0a77 74d1 b83f
00000020: 5d26 32ed 4139 bc3f 0665 f742 3842 bd3f
00000030: a7a6 9c31 5428 a5bf aa3f de19 8bbb 963f
00000040: c724 89f2 2b02 85bf 7763 b08a 6a20 bbbf
00000050: f2ce 241f 1cae c63f b8ef 0d0d fcce c03f
00000060: 2ec5 a0b6 28d9 bcbf bf47 9188 79c1 a03f
00000070: d218 902b b924 a43f 53a8 abea 31ec bf3f
00000080: a85a 6c83 e703 c13f 9c89 f18a 4310 c33f
00000090: d12e 9557 de67 c4bf ea72 9a13 0baa c43f
000000a0: d0bb 4ed2 e0af be3f 212f 477f fc7a c13f
000000b0: f3b5 14f9 277b babf e5fa 4176 d765 c03f
000000c0: fd7b 9c52 7d82 b83f b794 462a e5b1 b63f
000000d0: 4906 71ff 9b18 c83f 4982 0879 9485 b23f
000000e0: faaf 3812 dfc3 bc3f 9b09 9162 09cf c73f
000000f0: 701a 2f3c 208a c83f 0a6f ed62 e2b7 b83f
00000100: bd99 693d a26e c0bf 6a79 2c36 355a b43f
00000110: c3e5 6328 1f96 bc3f cade 862d 5a8a b3bf
00000120: 89a8 2faa 34e0 aa3f 4665 acc7 4ea4 c83f
00000130: 05d9 2a36 1b82 c9bf de0c f870 df26 babf
00000140: 3e85 3aca d289 a2bf 0c94 cbf9 e9a1 b83f
00000150: 203c dfcf 4845 c03f 3730 42f9 a317 a3bf
00000160: b92f 2bfe a281 b53f 0804 8dbb 909c b93f
00000170: fcd9 86e6 a287 bf3f a0e0 3d4e f3dc bc3f
00000180: 58aa d6d4 b4d2 b1bf 7fd4 74cb 5e06 b5bf
00000190: 028a 69f7 7b82 adbf 861e 5e40 14c6 c3bf
000001a0: 8a56 8699 50d9 a63f 9f06 530f 5d57 a2bf
000001b0: e14e 6058 2a06 ad3f af9f f1f9 f4bf c53f
000001c0: de58 45a4 68fa bcbf efda 32b6 f25e c83f
000001d0: 155b d601 2b80 a23f 396d e276 0a39 aebf
000001e0: 3bbb ae46 7a77 b7bf a3eb 50ff a9a9 9f3f
000001f0: 92b3 247a 5525 c23f adfe db7e 3939 903f
00000200: 7c2f 9156 b7db b5bf 3682 9175 1420 bdbf
00000210: d56c dbc4 2bb3 a03f c857 a07f 3754 c6bf
00000220: 1ab7 1a68 1384 bb3f 3cb0 5d7c 13be c3bf
00000230: 93b1 d0cb 8f8e b73f 0da1 bc9c f7d8 c33f
00000240: 5d3d c033 5352 b23f 9ab8 162b b7c5 b53f
00000250: de63 fc32 3108 66bf 414c 88f3 037e 443f
00000260: e6a2 488c c9f3 ad3f 8a72 f1eb 3780 bf3f
00000270: 8264 3f41 e71d c63f e2bf 6a3d 16dd c13f
00000280: 3794 ff78 5df6 c13f 7b46 2c18 da0e 983f
00000290: 86d5 93bf 5d86 bfbf 04df f25d 258c babf
000002a0: d6a3 df0a 14d0 c33f edbc 4a9f 65c8 76bf
000002b0: 6d2e 4821 93c2 863f dc9a 58a9 8876 c53f
000002c0: 8a5b 5d9b a8e4 bbbf 925c cb10 add9 d2bf
000002d0: e9d1 491e e53c d7bf ba8a f6ff 35f0 9f3f
000002e0: 3f07 1df1 d812 be3f 8835 97ab 3b74 a3bf
000002f0: 0283 9ac7 1456 b83f 7910 1a2f b3ce c83f
00000300: 80f9 d6c3 c751 94bf 1580 6766 4c20 ac3f
00000310: 4fe5 e849 3970 c03f 556b d741 08e6 b3bf
00000320: 7c48 9ca5 3c42 c1bf db5b 48b3 8235 a7bf
00000330: c6a0 18d0 6432 c63f 4eb5 55d6 6e35 89bf
00000340: cc00 4482 6cae c33f 4b20 b7b0 6823 cdbf
00000350: ce66 9c4a 9173 95bf a2db a72c d5e6 b7bf
00000360: 982c 37e2 2f47 a5bf bee0 23eb 5c74 b0bf
00000370: b957 cc07 801d af3f a38e 97e2 10d5 c33f
00000380: b3fd cd82 850c c0bf 241e e9c0 462f c93f
00000390: 8ff7 afde 4519 913f b257 0d0c 2eaf cd3f
000003a0: 4e37 4012 f30b bd3f 7d4c aa6e ef96 bf3f
000003b0: 7af5 c598 7f8b a83f bc76 a239 ab8e d5bf
000003c0: 4974 8087 e296 a33f 0000 00c0 1a7f af3f
000003d0: 4193 d93c bf08 a83f 0b34 42ed a66c c43f
000003e0: 8d0a 9d94 4d05 9c3f a9ab 8890 4ccc c23f
000003f0: 0eff baca 30e4 af3f 280d 1eb8 21d0 d33f
00000400: 0000 0060 d8f1 b3bf 9e5f e400 51ce 9dbf
00000410: 7f04 fe38 400e b03f 6340 03fd b7c8 a3bf
00000420: 2d67 6020 a20c 82bf fdc1 a3b2 bd91 a43f
00000430: a140 06c2 9650 aebf 0000 0020 2021 b13f
00000440: 976d 80cd dd1b a53f 0000 0000 bf2a 82bf
00000450: cac0 7960 f03d b1bf f296 d08e 424b a8bf
00000460: 2fed 16e6 9809 b43f 13c3 c377 76b1 973f
00000470: 80fb 0f9a bfc9 b1bf eb2a 2832 0053 b4bf
00000480: 0000 0000 ecd7 66bf 0000 00a0 ed9c b53f
00000490: c861 1144 bc34 a43f eee8 c275 415e 81bf
000004a0: cb52 2e81 1e90 a7bf b26e 2b19 c0ba a7bf
000004b0: dd91 5ea7 dcb9 a5bf 63e8 c9b1 6632 94bf
000004c0: 11f7 e3e3 fcbe 5abf 0000 00e0 de19 b6bf
000004d0: 2906 1d52 b42c 92bf 0000 0000 6e87 94bf
000004e0: 0000 0040 7fd0 b0bf 0000 0020 83e2 b3bf
000004f0: 5fbd 9e47 a350 a7bf a3ac 4629 f67d b0bf
00000500: 37e9 ab2d 10c4 a73f 0000 00c0 91e8 b0bf
00000510: e5fc e86f 3227 95bf 3962 7059 4219 b6bf
00000520: ca76 97bc 3a84 8b3f 0000 0020 2a23 a4bf
00000530: 0000 00c0 7777 a4bf 04c3 cf8e 375d a3bf
00000540: 1f2d e92c ffe1 9f3f 0000 0060 efcc b43f
00000550: 8776 f747 579f b1bf a66a 740b 1bb0 a9bf
00000560: 73f6 ef45 3b20 a9bf b07a 0ad0 b39d a53f
00000570: aff8 dfb6 7c91 463f 38e3 a7ce 8d6f 8e3f
00000580: 0000 0080 caed a9bf 10b8 cd46 2b35 8abf
00000590: 2ad7 bd63 a3b6 8fbf 0000 0040 d520 a2bf
000005a0: 21bc 0787 81cf 61bf 4db3 b072 c517 9e3f
000005b0: 0000 00c0 c9a6 a33f 0000 00c0 b62e a43f
000005c0: 0000 0000 71b9 88bf 8d1c 3528 7f6d af3f
000005d0: 4e4b 44a7 9aa5 8ebf 1cbe f52f 912e 98bf
000005e0: 88b0 ab51 b62c a43f b93c 108a 6054 b3bf
000005f0: 2c50 3516 276a a3bf a04a 2e77 b70e ab3f
00000600: 1395 04de 90df 713f 0000 00c0 9da4 a53f
00000610: 5602 62b1 4c44 913f 6dfd aa8d b4f2 86bf
00000620: 72d1 ada3 8b11 a9bf 2b5a 6179 de80 adbf
00000630: d4d0 cddf 3804 9e3f 4fc4 fe53 170b b3bf
00000640: 2159 09ce 2626 a0bf d460 07c6 82dc b53f
00000650: 3ca1 55c5 0897 b2bf 8c8d dfb5 1b7b 943f
00000660: a9b7 3c5e 5844 9ebf c211 c454 7247 b5bf
00000670: 0000 0000 cfe3 8d3f 07d9 581c 9ce4 a43f
00000680: 5f2e f23b 217c a23f 61b0 5878 0d43 90bf
00000690: 3c58 a467 8bfc a63f cf09 2303 c6ff a0bf
000006a0: e55c 0c8e 76a4 ad3f c2c7 0dac 2f7f a6bf
000006b0: c910 0b29 ea3e a03f 2e9f 2073 6ffe 993f
000006c0: d5c2 7ca3 04a3 b53f 0000 0020 af94 b5bf
000006d0: 0000 0080 8c71 afbf 57cc 3ae8 aa6d a83f
000006e0: a5b6 900b c480 b0bf 52b2 ea08 b484 65bf
000006f0: 6049 eace 1d0a 9cbf d717 056a 186a 9abf
00000700: c3da 605a 912e b4bf a4cf f073 8c9c b23f
00000710: 1706 b91f b9a3 9ebf e59d 8caf affd 913f
00000720: d442 c83b 0a91 963f c6bd 6793 4d22 9a3f
00000730: 0000 0000 d1a4 89bf 7d7f 5a93 8066 a7bf
00000740: fce4 57ff 9bc8 87bf 5857 f72f 800f b1bf
00000750: 57d1 bc99 0f8d ae3f 9b4b d1c0 c5dd b03f
00000760: 7c57 64d9 a22b 8a3f 4c4d bbe2 324d 7abf
00000770: b216 2ebe 2f45 97bf 0000 0000 c46c 723f
00000780: c563 5af2 8a7c 8d3f 5311 6518 4766 b0bf
00000790: 60bd 4f8c 84ae 993f 75c3 632b 8e4c 263f
000007a0: bcfb 7df3 bcae ad3f 4be4 74a3 3673 b2bf
000007b0: f452 78ee e9cb b03f 0000 0020 2168 b6bf
000007c0: 9b5c 6f11 7e5d 89bf 5fcd 3efc a747 71bf
000007d0: 7a18 97dd bfa9 abbf 31b5 84b6 a84f a63f
000007e0: f039 07f6 1201 b5bf 4959 0310 46a8 a53f
000007f0: 3e48 c29f bf86 993f 0000 0000 a49c 7abf

encoder.2.bias f8 [32]
0.027682906502626694 0.004926008409059582 0.11492968722864173 -0.08960983900908087 0.017148925828393426 0.049362723936673424 -0.1120900401325675 0.12345892709379117
-0.021918511146121526 0.009452577609783101 -0.009488875620021575 0.11035173307932665 0.032184711293433935 0.1389045624945859 -0.0002443962074620613 -0.034207103416167804
0.07657892483815236 0.1172821963951927 -0.04597068481594286 0.08950898441579859 0.05358766067157325 0.1114900586189844 0.1407492843901592 -0.010123005291775226
0.11746794248662476 0.05757806291302521 0.11139320047534304 -0.0421220916601465 0.04533591182215094 -0.04254890408985453 -0.02160105124949069 -0.03758450040700031
00000000: 7718 5968 e858 9c3f aa88 4450 4b2d 743f
00000010: e98c fc2f 086c bd3f ac9e f19f abf0 b6bf
00000020: 3abf 60ee 7c8f 913f 6323 e629 1246 a93f
00000030: efa2 93d0 eeb1 bcbf 725f 4416 019b bf3f
00000040: 3ecb 3262 ce71 96bf ef4a 937d df5b 833f
00000050: 13df b553 e76e 83bf fff3 a1dc 0240 bc3f
00000060: 027d dfb4 837a a03f b7f7 96ec 9fc7 c13f
00000070: 6d8e e3b7 4904 30bf ab39 edec 9783 a1bf
00000080: 0322 be29 ad9a b33f 739f ebbd 3406 be3f
00000090: d9e8 b737 7889 a7bf 6197 c390 0fea b63f
000000a0: 3c6b 1b84 d76f ab3f 4e00 99cb 9c8a bc3f
000000b0: c810 b292 1204 c23f 3cc2 52c5 5ebb 84bf
000000c0: 62f7 4e0b 6112 be3f ea60 5b32 df7a ad3f
000000d0: 9ed2 09c9 4384 bc3f b527 3ddc 0691 a5bf
000000e0: 9490 38c5 4436 a73f 7bd7 174f f8c8 a5bf
000000f0: 5100 b402 961e 96bf 1b4c 2b90 463e a3bf

encoder.4.weight f8 [12, 32]
0.006515509506580401 -0.06499362567730058 0.1325558792972453 0.11000648535256867 0.12013454541102132 0.13668491362152266 -0.1510931899955189 0.2652202694342371
-0.0339442014023063 -0.14365158300744343 -0.06548696026594514 -0.04230408421984973 0.16297511816469493 -0.5475989635273404 0.14203828425778056 0.20457067728240041
0.1037264549824037 -0.11191892692704927 0.17765570096284403 -9.348036850547842e-05 0.11862129705127325 -0.014933190928615635 0.2553617628509413 0.07641192966285505
0.004990683761224432 -0.13586318272447073 0.033338573778106 0.17839260908255034 -0.11915911704021659 -0.050519020320647846 0.11176718727791153 0.09913949853588387
0.06791923013507475 -0.026159440146625027 0.037410186015327355 0.05680650421937861 -0.006163214344373148 -0.018539744355287595 0.10953014482533062 -0.1581270018744868
-0.09674268047388883 0.47710792744204206 -0.1364306275869156 -0.15942170882030104 -0.09396055096498274 0.41266233843659506 -0.38609938866259963 0.009678641657559174
-0.12495923706002485 0.0580906737583567 -0.1179589331150055 0.17766542004405012 -0.23837687465036186 -0.03156629247217939 -0.08093949046953737 -0.16404071751836696
0.10890335897817853 0.1739108869765906 -0.11541158276287225 0.14920207214927655 0.031581376032519294 -0.14455663945056277 -0.16063520762522546 -0.052447071377265536
-0.08344687368528504 0.10373841226100922 -0.10437800287770643 -0.028026089072227478 -0.15062351524829865 0.034895798989504956 0.05169113094081407 -0.06870588566035231
-0.018515002120617123 0.6012863479307854 0.0015117324671744118 -0.7617508186986367 0.13217675062937143 -0.17435270926791166 -0.016248916975565807 0.06292049432230197
0.08809581638253547 0.13507814073595392 0.07453427473944081 0.1015141410421981 -0.007877493894620705 0.06084595506393284 0.20904342655850164 -0.029089865416003443
0.09700135694485036 -0.31070741369077587 0.08130886703215875 0.24905374782757975 0.1284053044338915 0.08049601995655778 0.2970432425798204 0.12584678828716278
-0.13287093383965493 -0.13323357701301575 -0.08927643183695995 0.12433449923992157 0.11962665617465973 -0.11687971651554108 0.14342375099658966 -0.008561661715763332
-0.19583291615093595 -0.16612321138381958 0.05165718184754839 -0.05145455332147404 0.00680766398175421 -0.18112184406840653 -0.14647958575825606 -0.16573645174503326
-0.18411735077256958 -0.12532642483711243 0.14993910491466522 0.13409791886806488 0.007491296815594692 -0.11922356486320496 0.024598886485552897 -0.1749193918070795
0.09534001625493511 0.026246685796432977 -0.14620591504370004 0.03895558973375245 -0.06025230884552002 -0.14073947072029114 -0.15570106156142896 0.15631835162639618
0.15980890104017573 0.01541946828365326 0.13771455092033885 -0.14881675637690608 -0.06433722376823425 -0.07050695270299911 0.1743417964095058 -0.2225307947347079
-0.06234156524520315 0.22297118838580135 0.09779796914803324 0.21884782514261517 -0.48924489308042063 0.7353748796235979 -0.005927179581026264 0.08901051929568603
-0.478223075837378 -0.13235212760296403 0.10335802236089371 0.06809953945134699 -0.2837258325689433 -0.06638272738058755 -0.095804800882597 0.13303219102885108
0.12350509575909834 0.028145130634762216 0.0035010541931407057 -0.12346922906535998 -0.13628332942975263 -0.018067446764815937 0.1585304529599887 -0.12570136785507202
0.14169341777006023 0.04144795474612489 0.21392186841834215 0.07000708575082404 -0.022809292211386216 -0.16626814997402042 -0.17079345934100723 -0.1032568970907792
-0.07253386929993685 -0.09099396783627112 0.108644068781883 -0.0072645339348092605 0.016229728307210024 -0.4822999698222966 -0.11407069438214217 -0.07054949771979854
-0.12350854400204848 0.24350483573875667 0.13970565012855438 -0.06935777707283906 -0.09935208930651927 -0.13644548928553027 0.10849859415501206 -0.0037520975494456225
0.14237989767784193 0.02442031639651805 0.19365713711359525 -0.08468237914128567 0.2409826899416427 0.24745327471532802 -0.1227138661922397 -0.11878507828460867
0.25803276878918163 -0.06033586710691452 0.012254858150079527 -0.05583854764699936 -0.1516752690076828 -0.07251777932964591 0.05727123083182398 -0.14918625515996642
0.17192090161237458 -0.07649571328204259 0.11471704756347403 -0.12613901902093808 -0.097428613139824 0.051321668167832964 -0.1281938869988732 -0.08229688824353683
0.1359189053219456 0.22037043086350408 -0.057434107696894374 0.17830730215398594 -0.0585247495980256 -0.10645672761365005 0.13527594533131876 0.13957316023070065
0.1511289452255946 0.03380157473819804 0.07189329636150815 -0.022621618605915522 0.026016601188061986 -0.047564186281692046 0.08462546421004456 0.0032031238079071045
-0.08399644501321277 -0.002717237795830469 -0.07934163869991398 -0.00028778334503425036 0.09680058402666272 -0.11264017672976086 -0.1560591757297516 0.01308644805470259
-0.096261468833185 0.13669020269431736 -0.030419309639740082 0.021527834408274948 -0.011275365115210505 0.07485067566867488 -0.047850445136161046 0.021851134942240332
-0.07001981644535689 -0.1461881106538916 0.1764518767595291 -0.024271573223252265 0.021116308648052952 0.030009578208499213 -0.1757050636065679 -0.06931164797925765
-0.022390427141162537 -0.15414699394802234 -0.0860288360274528 -0.03359834817177862 -0.1353006788343615 0.0027696278864907803 -0.06610406362161655 0.027261876314938274
00000000: 6bec f5c3 01b0 7a3f 4683 bb18 6ca3 b0bf
00000010: 53b2 3c4f 97f7 c03f 63eb ef90 6229 bc3f
00000020: 7900 a937 23c1 be3f 0f36 ee28 e47e c13f
00000030: b4eb d68a 0557 c3bf f334 dd6f 5ef9 d03f
00000040: f7cf d265 2261 a1bf 818e 84d1 2c63 c2bf
00000050: 901c a8e0 c0c3 b0bf aa47 6c84 e1a8 a5bf
00000060: f51f 4a61 5edc c43f b08c f542 ee85 e1bf
00000070: 2964 d57c 4f2e c23f 6401 5338 5f2f ca3f
00000080: fd22 e123 d18d ba3f ce80 f402 b8a6 bcbf
00000090: e5ab ca08 6cbd c63f acee 8f80 5c81 18bf
000000a0: f2be 711f f75d be3f ec7e 4ef5 4a95 8ebf
000000b0: 31ff 05dd d857 d03f 691c ed72 bb8f b33f
000000c0: 564e a078 1c71 743f 001b 44fb f663 c1bf
000000d0: bffd 24e8 c011 a13f 02c8 edaa 91d5 c63f
000000e0: 4c3d b53e 3681 bebf 05cf 3408 a1dd a9bf
000000f0: ade1 1f3e c69c bc3f 0716 f4c7 3461 b93f
00000100: da1b 3398 2763 b13f 514c a54f 8ac9 9abf
00000110: 273b f28a 6d27 a33f c106 a5fb bd15 ad3f
00000120: 68d3 c140 993e 79bf 5e88 ba2e 15fc 92bf
00000130: b770 f3e5 2a0a bc3f 842d d56e 813d c4bf
00000140: 4b42 c3d8 20c4 b8bf 89a8 41b0 ef88 de3f
00000150: a04b d40d 8f76 c1bf 9ceb d338 ee67 c4bf
00000160: ec3c 8275 cc0d b8bf 5c11 f84b 0f69 da3f
00000170: f0ee d335 dab5 d8bf 0782 1c4b 65d2 833f
00000180: d683 811c 54fd bfbf 894f fd8f 0fbe ad3f
00000190: 0000 0080 8e32 bebf f611 5c90 bdbd c63f
000001a0: c97c 5f28 2283 cebf e6e0 a503 7529 a0bf
000001b0: 6585 8550 73b8 b4bf d214 7a46 49ff c4bf
000001c0: 035f 3c2d 17e1 bb3f afcc fd41 b642 c63f
000001d0: 6acf 8b0d 9d8b bdbf 9e33 30b2 0d19 c33f
000001e0: add7 7122 6f2b a03f ed0e 6efb d480 c2bf
000001f0: dd12 abc9 b18f c4bf dc33 acb0 57da aabf
00000200: a986 6e39 c65c b5bf 0000 00c0 998e ba3f
00000210: 3413 c84c 84b8 babf 0000 0000 dfb2 9cbf
00000220: 0000 00a0 a147 c3bf 48fd dab6 dcdd a13f
00000230: 38a2 c489 4277 aa3f a934 f47b b596 b1bf
00000240: cea9 5fc2 98f5 92bf a79b fcdd bc3d e33f
00000250: 3faa 6f60 aac4 583f 3d61 c040 4360 e8bf
00000260: 4152 9ff2 2aeb c03f 9b28 2388 3051 c6bf
00000270: 139b 055c 8ea3 90bf e9c8 5cb9 8e1b b03f
00000280: 6604 478a 728d b63f acc5 6e92 3d4a c13f
00000290: bddd 6fa0 ad14 b33f f596 dbab d4fc b93f
000002a0: 95f5 3655 1322 80bf 3cdc 2f76 3327 af3f
000002b0: fd9a 415c efc1 ca3f bf56 6dd2 bbc9 9dbf
000002c0: c9e9 beb7 14d5 b83f d34d 1b59 a1e2 d3bf
000002d0: b626 c76c a8d0 b43f cdce ee42 fee0 cf3f
000002e0: 2797 96c3 956f c03f 9aec 2b1d 639b b43f
000002f0: 2c33 18a9 c102 d33f 0000 0060 bf1b c03f
00000300: fe13 b72d ea01 c1bf 0000 0040 cc0d c1bf
00000310: c516 0bfb d1da b6bf 0000 00c0 62d4 bf3f
00000320: 0000 0040 da9f be3f 0000 0040 d4eb bdbf
00000330: 0000 00a0 b55b c23f fe87 8cc8 c688 81bf
00000340: 469e 2c91 0d11 c9bf 0000 0080 8643 c5bf
00000350: 9c09 4765 cf72 aa3f 3af6 7d4f 4058 aabf
00000360: cfe3 9e62 5ae2 7b3f e6b8 6e26 002f c7bf
00000370: d581 2ed3 d7bf c2bf 0000 0020 da36 c5bf
00000380: 5ae0 1848 2891 c7bf 0000 0040 b20a c0bf
00000390: 0000 0060 3431 c33f 0000 00e0 1e2a c13f
000003a0: 0ae2 3dad 31af 7e3f 0000 0080 6f85 bebf
000003b0: 4ad4 e453 7330 993f e8b1 9f35 c263 c6bf
000003c0: 6da7 d00b 3468 b83f 830b 7f44 69e0 9a3f
000003d0: cf16 cc1b e0b6 c2bf af43 ceaf fcf1 a33f
000003e0: 0000 0000 64d9 aebf 0000 0040 c003 c2bf
000003f0: d1ed ad2b 03ee c3bf 0000 0060 3d02 c43f
00000400: 7fe3 c939 9e74 c43f 0000 0000 3e94 8f3f
00000410: 6a6e 3162 a1a0 c13f 8128 de6e 6d0c c3bf
00000420: 0000 0080 6778 b0bf 0000 0060 be0c b2bf
00000430: cacd f3fc d450 c63f d785 de9a e37b ccbf
00000440: ccb6 d1cf 3beb afbf 5d9c 08e5 518a cc3f
00000450: 1c24 1ba7 4909 b93f a9e5 e49d 3403 cc3f
00000460: b2fc e0cf c94f dfbf b610 49e6 3088 e73f
00000470: e513 5427 1947 78bf 9ffc 5fb5 64c9 b63f
00000480: 1080 baf5 349b debf 092d ce1d eaf0 c0bf
00000490: 05bc d1dd ab75 ba3f 4bf2 d0ae f86e b13f
000004a0: b37e fa64 9028 d2bf b570 1e5b 75fe b0bf
000004b0: 072e 97d6 a986 b8bf b35e e4e6 3207 c13f
000004c0: 8bb7 2cab 079e bf3f 43c8 78be 13d2 9c3f
000004d0: caa0 5a28 3eae 6c3f dae6 e5ec ad9b bfbf
000004e0: 2405 726d bb71 c1bf 558e e8d3 4580 92bf
000004f0: 480d 71d3 b94a c43f 0000 0080 fb16 c0bf
00000500: 7ac0 b089 0223 c23f a8cb 3d94 aa38 a53f
00000510: 70c4 60b2 ca61 cb3f 18be c9ff fbeb b13f
00000520: ee09 5fb0 515b 97bf a19e 4055 4648 c5bf
00000530: 31c3 1e61 8fdc c5bf ae61 1744 0b6f babf
00000540: 7edd 7e64 9491 b2bf 9874 fd73 614b b7bf
00000550: 6d93 5202 19d0 bb3f 4f23 bb7a 6ac1 7dbf
00000560: ddb0 35a1 869e 903f 42e8 4fb1 00de debf
00000570: d3a5 cdad bc33 bdbf c6ac 7429 880f b2bf
00000580: a1ef 4385 419e bfbf 5339 f59c 2a2b cf3f
00000590: f32c 2fef dfe1 c13f 3f48 4068 6ec1 b1bf
000005a0: 875b 5c76 236f b9bf 5983 15b9 0b77 c1bf
000005b0: f0c8 8e59 90c6 bb3f 1d4a 8508 b8bc 6ebf
000005c0: 122c 1126 8139 c23f 13c3 1fb1 a301 993f
000005d0: c51a 45cf c1c9 c83f 5394 f590 bead b5bf
000005e0: 8fc9 1952 85d8 ce3f 4260 1885 8cac cf3f
000005f0: 3ab7 0f0a 2d6a bfbf ad35 7cea b268 bebf
00000600: 3fbc cfdf 9b83 d03f 0000 00c0 57e4 aebf
00000610: 3910 c637 1319 893f 0000 00c0 de96 acbf
00000620: 0000 0060 186a c3bf 9370 9972 8690 b2bf
00000630: 8444 d99e a752 ad3f c45e 7603 8918 c3bf
00000640: 0f45 f60c 8101 c63f f59f d41a 3995 b3bf
00000650: 122c 94af 185e bd3f c5e3 b8c8 5225 c0bf
00000660: 7953 21e3 14f1 b8bf 99c9 b66c d546 aa3f
00000670: 2788 1a44 a868 c0bf fd8c 91ab 6811 b5bf
00000680: 3f08 a26a ca65 c13f 0537 c828 1935 cc3f
00000690: 4e59 77dc 0068 adbf 8cd6 b10f c6d2 c63f
000006a0: 766a 0fbb f4f6 adbf cc30 8a83 bf40 bbbf
000006b0: 7616 91e0 b850 c13f 908c 4b87 88dd c13f
000006c0: 2088 9c7a 3158 c33f 9593 1ba4 704e a13f
000006d0: cc9f ac5c 9967 b23f a845 6120 1f2a 97bf
000006e0: b1f0 058d 18a4 9a3f 25d9 1441 555a a8bf
000006f0: bfe2 30b1 03aa b53f 0000 0000 703d 6a3f
00000700: f6df 4f80 ca80 b5bf 4256 feee 7542 66bf
00000710: 925b 6dcf bb4f b4bf f53a 250e 34dc 32bf
00000720: cad2 a04e ecc7 b83f 9d1d 4593 fcd5 bcbf
00000730: 0000 0040 bff9 c3bf f874 5353 11cd 8a3f
00000740: 49e2 8074 97a4 b8bf eaba 2087 107f c13f
00000750: 4b40 4750 3d26 9fbf 33f0 f282 640b 963f
00000760: 29c0 5ce3 8917 87bf 2199 14f4 6929 b33f
00000770: e8ee ea81 da7f a8bf ff61 d4d7 2460 963f
00000780: 3d69 b495 d1ec b1bf 7847 29c1 4ab6 c2bf
00000790: 0000 00a0 f995 c63f a787 ddb4 a5da 98bf
000007a0: eaf6 387c 839f 953f b497 e3b3 d4ba 9e3f
000007b0: 8445 f7e6 807d c6bf bc82 4d7d 68be b1bf
000007c0: 7651 4221 84ed 96bf 9c48 e4b4 16bb c3bf
000007d0: 1f38 405d fc05 b6bf ccdf 317d cd33 a1bf
000007e0: ed2e 5c5b 8851 c1bf a0e5 39a6 54b0 663f
000007f0: 3e36 6327 32ec b0bf 2410 cd8c 89ea 9b3f

encoder.4.bias f8 [12]
0.18650470748859244 0.03660861676713787 -0.1153717368607415 -0.10101952339730659 -0.0764681647981726 0.055859860135908684 -0.04260601963004669 0.07965303772297455
0.21920155157624624 0.04473588197301694 -0.05384407668581903 -0.11482093188383263
00000000: a255 9be1 62df c73f ed86 8857 5dbe a23f
00000010: 2519 b38c 0089 bdbf 71ba 3f5d 6adc b9bf
00000020: 3d48 feea 6a93 b3bf ccbe e2e0 a999 ac3f
00000030: 4afa d8c9 74d0 a5bf 4417 0c38 2464 b43f
00000040: c94f a0e3 cb0e cc3f 334b 101c 9fe7 a63f
00000050: 60d7 e568 7391 abbf 9c59 5693 e764 bdbf

encoder.6.weight f8 [3, 12]
-0.06520932587235186 0.03712293490903762 0.10405775699501042 -0.07339575317323395 -0.15377187315184623 0.1747033681002939 0.1921667656504955 0.1846586998998498
-0.28811400915555285 -0.2364461732554477 -0.035329857489957574 0.021525281114073484 -0.13437118549715324 -0.3019562979111489 -0.07951765369071273 0.18281173493391803
-0.18416984451204993 0.2271087423767754 0.1928875094628567 -0.17823835681623365 -0.36619102628450434 0.4011503833572177 0.005598684109726107 -0.04184027116151833
0.30855143997902584 0.053901741324991106 0.19626669290715312 -0.2212174321302678 -0.21605923623894915 -0.1592897149434673 -0.227945699176374 0.19800019369591687
0.22157995461788024 0.1724659084007759 0.48765475007442977 0.1318923162873438
00000000: d115 04f2 8eb1 b0bf 2051 bbfe c601 a33f
00000010: a94d 3077 87a3 ba3f 1559 8b67 10ca b2bf
00000020: efac 1df7 cbae c3bf b2f3 3e12 ae5c c63f
00000030: a869 ecaa eb98 c83f 1ef1 7e72 e5a2 c73f
00000040: 3eec b5bd 7570 d2bf 70c0 b242 de43 cebf
00000050: 35c1 fb4c c116 a2bf a148 b029 b90a 963f
00000060: 3915 9e33 1333 c1bf 2360 1682 4053 d3bf
00000070: 6067 0eda 445b b4bf 99df 6efb 5f66 c73f
00000080: 3259 8ba1 e092 c7bf 9d6c 9236 e611 cd3f
00000090: 0495 79b4 89b0 c83f 7b91 b5b4 83d0 c6bf
000000a0: 85c2 7e7c ac6f d7bf e503 53a8 72ac d93f
000000b0: 9d37 6e52 a5ee 763f cfc7 9688 166c a5bf
000000c0: ebfd f589 4ebf d33f 5a67 6050 0299 ab3f
000000d0: 3347 aa59 441f c93f 20fd 2652 da50 ccbf
000000e0: 2b90 d23c d4a7 cbbf bfbb 22fa 9a63 c4bf
000000f0: 09fa 9c1d 532d cdbf ca47 4302 1258 c93f
00000100: 0738 4461 bb5c cc3f 44cd 20e6 5c13 c63f
00000110: 39c2 d344 bc35 df3f 491f 86f0 d8e1 c03f

encoder.6.bias f8 [3]
0.30883814047841956 -0.23573275989922943 0.19150123120535073
00000000: 5d2f 470c 01c4 d33f 2277 2eb7 7d2c cebf
00000010: 06da 95c2 1c83 c83f

decoder.0.weight f8 [12, 3]
-0.6209459693273442 -0.31144656405914833 0.4595948527786597 -0.5608920809585456 -0.2020287808108229 -0.06343949440860507 0.42307945578478506 0.25092036884100594
-0.6015894905671172 -0.17448714941503293 0.35076921255792987 -0.1582609472885995 0.30195765338793373 -0.051084532389938826 -0.5425739313740441 -0.014402377724910684
-0.13888353214504726 0.5187739627545886 0.478223520622212 0.08246679730477181 0.4465587882749607 0.4074122385369902 0.2573497170329195 -0.273948341129042
0.5867406680478497 0.5652267625531222 0.11893431418220002 0.323161661866825 0.5350645259756703 0.41418626431774713 0.3642857361168693 -0.5211463662735225
0.20620157745176107 -0.10599825521964308 0.4843755456929238 0.3370733227977847
00000000: be01 db14 cade e3bf a77a c591 bdee d3bf
00000010: a708 8687 006a dd3f c0ac 09f3 d3f2 e1bf
00000020: 4d74 373f 14dc c9bf e77d c219 923d b0bf
00000030: d920 8dda bb13 db3f d7a1 844e 140f d03f
00000040: 574c 739a 3840 e3bf 93a8 274c 9855 c6bf
00000050: 9d51 18b6 0073 d63f 7354 6b0c e541 c4bf
00000060: 3fff 8431 4653 d33f 9179 e477 c027 aabf
00000070: c43c 5d01 c45c e1bf 724a 816a fe7e 8dbf
00000080: 690a 4282 efc6 c1bf 5283 81da cb99 e03f
00000090: 4306 50d3 369b de3f 090b 6e45 8b1c b53f
000000a0: 5578 d84f 6b94 dc3f e36a 20c8 0a13 da3f
000000b0: bba3 92f2 6a78 d03f fc54 7c9f 5e88 d1bf
000000c0: 68f5 8f5d 94c6 e23f f2aa 7f6f 5616 e23f
000000d0: 98e4 c8ad 7a72 be3f 5d7f 4240 aeae d43f
000000e0: 8016 0aa4 3f1f e13f df9d ec1a 0782 da3f
000000f0: fe5b c11e 7550 d73f 585e f224 3bad e0bf
00000100: 7dfb c433 d064 ca3f 35f7 999f b322 bbbf
00000110: c1ed ee49 0200 df3f 7850 71fc 9b92 d53f

decoder.0.bias f8 [12]
0.5903111299593626 -0.7325314670199692 0.26885767792931015 0.295401123023976 -0.6476682756734512 0.6000921890351311 0.04707004822254305 -0.6709058922798034
0.42061591229744083 0.053196451106584816 -0.10440975326176621 -0.278484277611418
00000000: 147d b42a d4e3 e23f 9088 c4d4 e570 e7bf
00000010: 6808 7fd5 f634 d13f d1bc a51c dae7 d23f
00000020: ed92 d5d1 b2b9 e4bf c3b5 cf88 f433 e33f
00000030: 8553 79bb 9019 a83f 7122 41a2 0f78 e5bf
00000040: 5fa9 df00 5feb da3f 0637 88b3 903c ab3f
00000050: fc88 a4fb 98ba babf 6fa3 32b8 afd2 d1bf
