2_dagmm.pth (torch, 322293 bytes, 16 tensors)

encoder.0.weight f8 [128, 118]
000000 fd 85 c2 5b b6 73 91 bf c2 fe 9f e4 b5 76 c7 3f
       -0.017042970038010797 0.18331025756196168
000010 85 ec 98 4d 59 bb 82 bf 0b 23 45 2c 97 42 b8 bf
       -0.009146402054389444 -0.09476609068691404
000020 31 a3 f6 4f ee 7d b2 bf ab c6 8b 65 7b 2d 89 bf
       -0.07223405315620536 -0.012293781315267557
000030 82 fc 85 1c 30 df a7 bf 00 00 00 00 74 3d b0 bf
       -0.04662466381250231 -0.06343770027160645
000040 d7 4f 26 96 ab b1 aa 3f e2 dc b9 09 b2 a4 af bf
       0.05213676650888004 -0.06180340164876853
000050 45 b6 77 8f dd af b3 bf 8c 3a d0 1a c6 a7 a4 3f
       -0.07690224411609232 0.04034251286804133
000060 d5 3c 57 6d f0 62 b3 3f 82 49 7c d8 02 95 a4 bf
       0.07572844190075341 -0.04019936459202979
000070 2c 95 a7 01 28 3d bf bf ac a0 85 0d 8c 80 90 3f
       -0.12202692070384974 0.016115368199650135
000080 b9 be e4 68 61 e4 b0 bf 01 1e 45 18 77 22 b4 bf
       -0.06598480997922253 -0.07865089743165045
000090 7f ca 90 53 5a 54 a3 bf 0e 1a 0a 2b ca f5 b9 3f
       -0.03775293607795493 0.10140670347946232
0000a0 b5 33 d2 35 6e 8a 92 bf aa ae f3 0f 3f 0f b7 bf
       -0.018106195483188 -0.09007639064264575
0000b0 27 d3 38 d6 a5 fc b3 bf ef ab b0 9c e1 69 a6 bf
       -0.07807384948757755 -0.043776560189449636
0000c0 2c bd 05 e5 6d aa a0 bf bb 41 a9 69 40 64 cb 3f
       -0.03255027218517123 0.21399693640934267
0000d0 2e 19 45 4b 58 7d b1 3f c2 1f 35 65 c1 9a 90 3f
       0.0683188613666956 0.016215345194069426
0000e0 0d e9 f5 a2 3a 30 b1 3f 57 0d a2 f3 e4 26 90 bf
       0.06714216688661541 -0.015773370142153933
0000f0 5f 97 e0 5e 98 e8 ac 3f 7e 79 c0 e3 b8 8e a8 3f
       0.05646206052942548 0.047963884164562196
000100 6b 04 df b9 14 a6 37 3f 97 1b f3 68 07 2f a1 3f
       0.0003608513451319242 0.03356192737697155
000110 46 44 87 9e 0a 31 bd bf 4d b9 bb 31 84 cf 93 3f
       -0.11402956362077629 0.019346299682120805
000120 51 80 d9 55 3e dd 93 bf a3 e1 3d 22 8c db a6 3f
       -0.019398664464802377 0.04464376371373937
000130 00 00 00 00 9a cb b2 bf d1 25 6e 08 95 27 c0 bf
       -0.07341921329498291 -0.1262079516566659
000140 97 e1 61 ab 50 bb aa 3f 00 00 00 60 b0 0e a4 bf
       0.05221035091466602 -0.03917456790804863
000150 d6 7e 3c 37 13 e5 aa 3f bd f5 9b 03 43 19 9e bf
       0.052528954022134464 -0.029393241019524775
000160 36 2b 61 12 48 47 6d 3f 18 23 72 ae 76 4b b5 3f
       0.0035740287449121068 0.08318273314411007
000170 64 d7 ca 7e 55 5f 9b bf 44 af 0d 62 9d 72 98 bf
       -0.026730857719221915 -0.02387472067805098
000180 42 48 9b 37 b5 32 b0 bf 00 00 00 e0 97 20 a1 bf
       -0.06327374084074314 -0.03345179185271263
000190 fb 1c 8f 46 eb 1a c0 bf e0 71 9f 75 3c 83 8b bf
       -0.12582150407090595 -0.013433906879009194
0001a0 32 75 af 8c 59 a9 b3 bf 98 1f 26 6a bf b4 a4 bf
       -0.07680282292081556 -0.040441495616561685
0001b0 6a 6c bb cd 81 d7 b2 3f ad bd 20 bb e2 28 c4 bf
       0.07360087654835615 -0.1574977315626546
0001c0 10 8b 96 19 f2 95 b0 3f 82 5d c9 b8 6c e3 8d bf
       0.06478798985203249 -0.01459393443035029
0001d0 54 14 5b 20 95 0e a4 3f 6c 2f fa 60 01 b1 4e bf
       0.039173755836181684 -0.0009366280300624314
0001e0 00 00 00 c0 93 c7 a8 3f 00 00 00 60 da f9 a6 bf
       0.04839765280485153 -0.04487497732043266
0001f0 ea 2b d5 31 b9 59 bb bf b5 c6 0a 93 3f 6b a7 3f
       -0.10683782068842587 0.04574011487910693
000200 24 5c 0b 14 8a 3b b5 3f 54 04 20 20 5c 55 c0 bf
       0.08293974866261117 -0.12760497635466328
000210 00 00 00 60 e8 32 b4 bf 6f bd b2 47 4e 24 b4 bf
       -0.07890179008245468 -0.07867898226208124
000220 0e ee 9b 43 cf 77 87 bf eb d5 00 cd 9a c4 9e bf
       -0.011458987475172069 -0.030046862375646837
000230 2d f1 e8 9b 5f 26 ad 3f 3a 58 c3 27 71 08 bb 3f
       0.056933391363119014 0.10559756489541963
000240 60 72 e0 0d cf ed 84 bf d4 ab 5d fd e0 73 bd 3f
       -0.010219209300026566 0.1150494211739635
000250 6f 3e 67 18 85 10 c5 bf 19 83 a6 45 93 23 a6 3f
       -0.16456664744918068 0.043240167858362884
000260 3a 63 5a f9 16 3d c0 3f 1f 7d c2 99 19 95 7a 3f
       0.12686431098406975 0.0064898490929004285
000270 78 d4 ea 98 b5 f8 b8 3f 61 37 15 48 20 67 88 3f
       0.09754500373203878 0.011915447425646599
000280 28 c8 26 22 ae 1b 96 bf fd 7b 9a d2 99 77 a1 bf
       -0.02158996661609805 -0.03411560722201299
000290 b4 dd db 18 52 99 bb bf d8 04 78 29 9c 4e ba bf
       -0.10780823809533652 -0.10276199352667292
0002a0 21 e1 ff 09 18 2c 99 3f f1 15 9f 22 a1 e5 66 3f
       0.024582267389605342 0.0027950427220015885
0002b0 67 4a 74 a5 05 80 9f 3f 99 35 a9 ee c5 a4 95 3f
       0.03076180288651145 0.02113637227221474
0002c0 2d 22 e9 86 91 71 c7 3f 63 49 2d 99 c1 b2 8a 3f
       0.18315333449778973 0.013036262976730389
0002d0 f1 72 54 cb 05 27 ae bf d5 b9 30 52 14 39 a5 bf
       -0.058891469069043974 -0.04145110610294337
0002e0 e6 e3 38 96 ad fd c6 bf 03 e5 02 42 8a c1 a9 3f
       -0.1796166404253931 0.050304718549748294
0002f0 bd 02 c4 f5 ac 87 a8 bf 41 95 79 0c d6 1f b5 3f
       -0.047910122872058626 0.08251703075946627
000300 00 00 00 80 ad 46 b7 bf 00 00 00 a0 bc 4f b4 bf
       -0.09092220664024353 -0.07934168726205826
000310 4c f7 cd 02 82 c8 a7 3f b0 c1 81 95 7d 19 a9 bf
       0.04645162853465354 -0.04902260255846913
000320 78 0b ea b6 70 03 c1 bf 58 18 ea 41 53 02 c2 bf
       -0.132917489350884 -0.14069596022108288
000330 f3 49 78 8d 58 23 b7 bf 14 1c f2 83 ec 95 93 bf
       -0.09038308576445057 -0.01912660174687282
000340 6d 29 f3 f2 a1 5d 9a 3f f8 4f 0f 69 3c 7b c2 3f
       0.025747805074197872 0.14438586358903627
000350 f7 38 29 2e cd 95 a2 bf db ca c7 ff 03 9d a9 bf
       -0.03629914463509636 -0.050026059125135545
000360 24 c1 29 3d ef 3f a7 bf 05 e5 4b 3f 8a cb b3 3f
       -0.04540965673084177 0.0773245243580228
000370 1f ef c7 d2 f5 b7 9a bf a7 d4 bb 1c d2 9e 65 3f
       -0.026092377653170403 0.0026392081980427143
000380 6c 86 60 3c b1 6c a6 bf 58 3b d0 61 d1 db b7 bf
       -0.04379800664925146 -0.09319790494940372
000390 76 61 31 2f d2 98 b0 bf da 04 04 17 e1 1e b6 bf
       -0.06483186390085457 -0.08640868007570948
0003a0 9d 39 eb 3d 82 c0 b4 bf 95 db 1c 70 53 57 b0 bf
       -0.081062450520426 -0.06383248793723191
0003b0 cc 47 67 26 66 7f b7 bf 5f 58 d9 50 05 0b c7 3f
       -0.09178770482620208 0.18002382705407435
0003c0 eb a7 9c b8 61 8d af bf e6 78 e1 eb 9f 38 c1 bf
       -0.06162553194583594 -0.13454054849257274
0003d0 9b fb f2 55 aa ba b4 bf 00 00 00 80 89 23 b5 bf
       -0.08097328756683313 -0.08257350325584412
0003e0 49 34 29 87 de 87 97 3f 00 00 00 40 86 a7 9e bf
       0.022979237556047392 -0.02993592992424965
0003f0 8d 89 67 6c dd 8c b9 3f cc 42 77 db 41 a1 b6 bf
       0.09980567833512151 -0.08839809043935104
000400 00 00 00 60 e2 c5 a8 bf 00 00 00 20 b5 19 b5 bf
       -0.048384737223386765 -0.08242351561784744
000410 00 00 00 40 fb 28 b6 bf 78 97 cc 10 ad e9 ae 3f
       -0.08656282722949982 0.06037655668323699
000420 75 57 42 73 63 d1 b4 bf 00 00 00 a0 8e c0 aa bf
       -0.08132001460975664 -0.052250344306230545
000430 c2 43 8c 1f e5 04 ba bf 60 7c 5d d0 10 74 a4 3f
       -0.1016371919652235 0.03994801085968258
000440 00 00 00 00 0d 18 81 3f 00 00 00 00 84 d2 a0 bf
       0.00834665447473526 -0.032856106758117676
000450 8b f3 d7 ed 7f 5e ac bf b3 51 0e d8 74 6a aa bf
       -0.05540847566951531 -0.05159344804193058
000460 59 5d 11 ad b8 9b c0 bf 7d 64 82 97 fb 52 bc bf
       -0.12975223970964114 -0.11064121674498213
000470 f2 2a 8e 3e a4 f1 bf bf 09 0b b3 c6 f8 59 cf 3f
       -0.12478090789060639 0.244933220883546
000480 25 7e 8c 61 b7 43 72 3f 77 86 8d 12 ad 95 b2 3f
       0.004459110576845703 0.0725963754935267
000490 97 35 a3 2f 9d 4b b5 3f 48 50 26 ad b1 2e ae 3f
       0.08318502820039551 0.058949997316773806
0004a0 64 68 7c 1f b8 02 a9 3f 00 00 00 e0 2c dc b3 bf
       0.04884887108183092 -0.0775783583521843
0004b0 88 4c df 4d 9c 59 c3 bf f3 ad 02 bb 41 81 a4 bf
       -0.15117219736439247 -0.04004865081637012
0004c0 43 92 fd e4 8c 15 bc bf b1 29 a2 2b 34 22 b7 3f
       -0.1097038325365896 0.09036565842885726
0004d0 bf 6a 55 e5 4d 8a b7 3f 00 00 00 40 b0 67 a6 3f
       0.09195410584417639 0.04375983029603958
0004e0 00 00 00 40 be f4 b3 bf 14 cd f4 a7 8f 72 9e bf
       -0.07795323431491852 -0.029733891130672666
0004f0 43 e5 c3 d7 cb 4f a8 3f 00 00 00 00 4a 87 83 3f
       0.04748379715779063 0.00953538715839386
000500 44 d2 fb 58 b8 08 7c bf 87 06 6d 10 6e 5e c6 bf
       -0.006844253642829094 -0.1747567730144974
000510 10 33 83 c0 73 df a9 3f 00 00 00 e0 b9 35 a1 bf
       0.050532929658947734 -0.03361302241683006
000520 99 b9 94 50 89 a6 be bf d4 77 d1 42 da 22 b2 bf
       -0.11972864358242531 -0.07084430819801862
000530 8c 0b f2 ea 81 6d 76 bf 00 00 00 80 f0 82 94 bf
       -0.0054755282318436176 -0.02003074437379837
000540 94 2a 83 a0 7a 1f b8 bf 9f c6 f9 ef 24 90 b6 bf
       -0.09423033159979816 -0.08813696726590557
000550 d0 20 1b f9 2e 1e bc bf ee f9 d5 4e 7a d1 ad 3f
       -0.10983556348503787 0.0582388135180628
000560 00 00 00 e0 71 58 ac bf 8e 81 5d 1e a9 7c bb bf
       -0.0553622804582119 -0.10737092009867963
000570 22 44 dd 85 c7 c2 b4 3f a3 e9 71 e5 b2 ab 9f 3f
       0.0810970975701513 0.030928416494569465
000580 78 38 38 4f 91 c5 73 bf 64 d7 ed 40 6a 05 aa 3f
       -0.004827087035222381 0.050822563577567675
000590 00 00 00 c0 98 bb a9 3f 00 00 00 00 b8 b6 af bf
       0.05025937408208847 -0.061940908432006836
0005a0 9b 5a 4c 95 9e 68 c4 bf 00 72 d5 cb 1a 0e b4 3f
       -0.15944273271516782 0.0783402202263872
0005b0 1e 76 a3 56 01 88 bd bf b1 1a d6 35 ce 69 c3 bf
       -0.1153565250892474 -0.15166642788627407
0005c0 d7 e6 25 df 20 68 b0 3f 1a 9c 3f 2f b0 99 c6 bf
       0.06408887336683776 -0.17656519228987194
0005d0 ee a1 51 3c c2 67 b0 3f 00 c9 af 69 e4 3f ab 3f
       0.0640832326186069 0.05322183408851977
0005e0 13 1e b8 87 ff 83 ae 3f d1 d5 de 20 3b fb b5 3f
       0.059600816075597994 0.0858647303819773
0005f0 b3 1e 8c cb 12 19 92 bf 2c 36 60 3c bb a1 b3 3f
       -0.01767377250055686 0.07668657516497807
000600 f9 e1 b7 3f 29 dd c9 bf 43 41 7b 00 bb ec c3 3f
       -0.20206180201763838 0.1556619407988454
000610 b0 39 f9 2e 3c 43 c4 3f c7 34 e3 18 3a e4 a2 bf
       0.15830185216550552 -0.03689748338511261
000620 df af 89 c5 ab 60 ba 3f 12 43 f6 4c dc 0c bb 3f
       0.10303758213711899 0.10566498640970348
000630 aa 52 00 42 98 0e b3 3f 61 f4 61 dd ae 63 a2 3f
       0.07444144831999702 0.03591677143501993
000640 bb c0 e4 b0 ca 04 a4 bf 80 f3 e9 80 85 2a 75 3f
       -0.03909905824036871 0.005167504785842492
000650 10 fe 6b 4d 4f c9 76 3f 45 17 f4 13 11 1d b8 bf
       0.005563077712167366 -0.09419352280755529
000660 b8 fe 77 1f 34 d0 b6 3f 04 ea d3 1d 76 81 b8 3f
       0.08911443489341309 0.09572542408196943
000670 43 a4 8b f6 06 18 ca 3f da 23 77 90 d6 dd bd bf
       0.20385825193742066 -0.11666623141276436
000680 78 9d 54 90 54 ac a3 bf 3f 72 2b 5d 31 e9 95 3f
       -0.03842415105674041 0.021397372542980127
000690 6e ce 08 35 2f a7 c4 bf e7 42 46 d2 5f 1e a5 3f
       -0.1613520630795508 0.04124736253573307
0006a0 24 d4 fb 14 4c 20 9f bf 3e f5 58 57 41 82 a9 3f
       -0.030396641522163162 0.049821893608604104
0006b0 00 00 00 60 7c 12 b7 bf 00 00 00 c0 ac 35 a2 3f
       -0.09012582153081894 0.035565756261348724
0006c0 2a f7 f5 60 48 12 b0 3f 3d c8 2c b5 af 15 7e bf
       0.06277897231299492 -0.007344900472888991
0006d0 24 a5 7b fd c7 8e 80 bf 43 b1 e1 30 45 88 bb bf
       -0.008084833548724087 -0.10754806941412647
0006e0 f4 7c e8 4f ec 16 a7 bf 85 76 20 0b 5d b5 9a 3f
       -0.04509676433030477 0.026082471660734647
0006f0 bf 3c 93 44 00 d7 b0 3f 96 b5 74 38 fe 91 ab 3f
       0.0657806556148328 0.053848213569249
000700 cb 58 6d 0a 0c ed 62 bf b1 79 2d c3 fb a2 b4 bf
       -0.002310298459103332 -0.08061193003729873
000710 8b ae 2d a9 7f 77 8f bf b3 83 1a 8e 11 76 b5 3f
       -0.015364644384781264 0.08383283347440233
000720 96 e6 48 58 6b 73 c0 3f 1b ec 7a 49 4b 5a 87 3f
       0.12852231798915587 0.011402691059052164
000730 4e 95 65 14 52 36 b8 bf 98 08 2d 09 b8 2c b4 3f
       -0.09457886693924886 0.07880735610982226
000740 fa 07 d2 6c 34 53 66 3f bb 79 02 ac 21 5b c8 bf
       0.0027252220084514863 -0.19028111361417452
000750 38 0e 48 e5 ff 30 b6 3f 1a 23 3e 1a 1b 56 95 bf
       0.08668517444316926 -0.020836280323723512
000760 7f db 94 b7 b8 b7 bb bf fd e1 bf 60 18 64 c8 3f
       -0.10827211839646898 0.19055466388796552
000770 bc 12 eb 75 bb 06 b1 bf a6 07 a6 f2 39 55 83 bf
       -0.06650897625793112 -0.00943990012888547
000780 89 03 61 07 2f 67 ac bf a6 aa a8 8d e4 78 96 3f
       -0.055474729204895 0.02194554438225773
000790 21 b1 bc 75 2e 76 bb bf 74 38 82 64 11 25 c7 3f
       -0.10727205633583427 0.18081872375154584
0007a0 3a ff d8 db 11 46 c1 3f 72 55 92 44 8b cc b7 bf
       0.1349508594012095 -0.09296484397994734
0007b0 61 db 98 78 84 be 89 3f a0 41 70 91 f8 64 b5 3f
       0.012570414476710647 0.08357194472069418
0007c0 92 59 64 41 5e 98 c5 3f 79 6a c1 d8 89 d8 b5 3f
       0.16871240799873682 0.085335364741164
0007d0 54 48 af 11 3c f3 ab 3f 10 78 56 e4 02 40 c6 3f
       0.05459010806920675 0.1738284697466388
0007e0 c6 cb 2e fd bf 28 c2 bf dd 74 e0 71 55 ae 9d bf
       -0.1418685899967313 -0.02898534305142141
0007f0 d5 d9 37 88 14 29 ac 3f 71 7f e7 8e 4d c0 ad 3f
       0.055000917080110824 0.05810778016507257

encoder.0.bias f8 [128]
000000 2a 14 83 50 6d 0e be 3f b6 12 b2 a6 c3 df ae 3f
       0.11740763869882245 0.06030093583925604
000010 dd 70 c6 27 cd 3d b7 3f c3 40 14 87 47 b1 a9 3f
       0.09078676434586748 0.05018065952219921
000020 09 f9 7b 04 d8 14 b7 3f 2c 5a ce 06 01 12 a6 3f
       0.09016180142859666 0.04310610969621495
000030 fc 22 c1 dd 04 25 a3 3f e6 b5 2b 64 a7 1c a0 3f
       0.03739180762256031 0.03146861169612318
000040 65 1c de 8d 00 d6 ab bf fc 5f 5a 36 4e 7a ab 3f
       -0.05436708194525223 0.05366749204148388
000050 39 8b 7e 8f 07 81 c3 3f 9f 48 1d 78 3a 04 bf 3f
       0.15237516886289784 0.12115827019195756
000060 00 00 00 00 56 f5 70 bf ca db e6 7d b6 9e c2 3f
       -0.004140220582485199 0.1454685320620384
000070 6c 7f ea ec 2f d6 ac 3f 8c a8 ac 4e 64 54 b1 3f
       0.0563216187194929 0.06769396706354963
000080 f3 cd 18 76 99 71 ad 3f 33 1e 71 6d d9 52 7c bf
       0.05750732008564432 -0.0069149487745288505
000090 00 8b 42 81 f7 61 bc 3f ac fe 88 15 4e 6d b7 bf
       0.11086985498199553 -0.09151161218414455
0000a0 46 bd 4c 13 e7 c1 a0 3f b9 96 d3 8d e8 66 8a bf
       0.03272935972779094 -0.012891594722940313
0000b0 f8 d4 97 e2 10 75 a9 3f ab 9b 86 ec 29 91 c3 3f
       0.049721267376222344 0.15286754654991105
0000c0 ea f5 4c 0a 14 bb b5 3f 01 e0 3b aa f4 ff ae 3f
       0.0848858380458847 0.06054653718996406
0000d0 d0 7c 64 da aa 97 b9 3f 65 67 ae 48 f8 ff 77 bf
       0.09997051078652253 -0.005859346255329222
0000e0 9b 3a aa ef 3e 25 80 bf 7c 35 1c ae e7 25 9d 3f
       -0.00788354081057934 0.02846490860161087
0000f0 0f 74 64 9c 79 cb 88 bf 76 f8 59 1a 1d 10 a2 3f
       -0.01210684784433094 0.03527918764756148
000100 ed f2 2a 97 56 97 b8 3f b9 15 0e ba 62 58 77 3f
       0.0960592383443772 0.005699525500749863
000110 c1 89 7c 46 47 2a 82 3f 78 01 cf e3 91 a3 b9 3f
       0.008869702185226981 0.10015212833150666
000120 87 0f 6d 0e 1f 1c 98 3f 9f 4e 69 9d 5a ce 95 bf
       0.023544774299139284 -0.021294990403773025
000130 8f 64 97 56 3b a9 bd 3f 9d 17 79 66 7e 0d 97 3f
       0.11586352218673056 0.02251241207547815
000140 73 f9 bd b3 85 04 a3 3f 2d 3a a1 b0 c3 1c b2 3f
       0.03714387721173553 0.07075141012430981
000150 fd f5 ee bd 9f c4 b9 3f 61 c9 38 cc a5 45 a5 3f
       0.1006564940170946 0.041546994380399445
000160 7f 67 2e 82 b8 fa ac 3f 57 4d fe 8d 81 3d a2 3f
       0.0566003474152259 0.03562550409619785
000170 06 1f cc d6 70 87 9c 3f c4 e1 ef 0a fd 91 b1 bf
       0.027860415563764306 -0.06863385693566842
000180 e1 7f f1 24 0a a2 ba bf 77 17 2c 9f d6 29 9f 3f
       -0.10403502847611847 0.030433038201429476
000190 2a 61 eb c4 5e fa bb 3f e3 35 4b 6a 8b 47 9a bf
       0.1092890959511165 -0.025663545954378263
0001a0 29 ee c3 36 4b da c6 3f 51 ca 11 96 b2 2a b1 3f
       0.178536798230071 0.06705776370817175
0001b0 ed e7 1e 47 2f d4 a2 bf 2b c5 e1 4d fc 48 9c 3f
       -0.036775090629319475 0.027622167829069937
0001c0 47 1b 47 3f 12 e4 7b 3f 46 f4 eb bf 41 80 b8 3f
       0.006809302595178596 0.09570704398716243
0001d0 33 df 66 51 f3 f4 bc bf ea 31 02 93 53 0f ae 3f
       -0.11311264741277398 0.0587106816247774
0001e0 33 90 48 ff 4d 0d 9d 3f 49 10 ad 7f 1e 77 a5 3f
       0.028371065813317563 0.04192443188233647
0001f0 35 be 12 b1 7e 58 b3 3f e0 b1 23 17 a0 93 ae bf
       0.07556907485081228 -0.05972004206146031
000200 52 d0 56 17 85 7d c2 3f 8f d0 fb ad 22 c5 c1 3f
       0.14445556296925816 0.13882859702392067
000210 65 93 de 11 64 f0 c0 3f f0 c6 61 99 31 e3 b3 3f
       0.1323361480000599 0.07768545145679773
000220 ec 4a 98 57 15 a2 b2 3f 8b ec 64 ae 72 ad 89 3f
       0.07278569592044065 0.012537857005204841
000230 8d c9 87 1b ad f6 c2 3f 4a aa 6e 56 fa 31 90 3f
       0.14815296024569272 0.015815650487335277
000240 e6 c5 3b b0 3a 13 87 bf 1d 16 dd 51 fa 2f b7 3f
       -0.011267145636767627 0.09057583330749037
000250 07 4c 79 a7 e7 30 82 bf 15 43 37 fc 4d df b2 3f
       -0.008882341192622446 0.07371985824216794
000260 91 ac ae 1a b1 74 b8 3f 37 f5 63 da 8a 5e b2 3f
       0.09553057576583714 0.07175510246084547
000270 66 c2 db bf 37 50 87 bf eb 20 75 f4 72 4c b5 3f
       -0.011383472006373196 0.08319776981545927
000280 5b a8 8a dd 9d 37 c3 3f dc 32 b1 ca d4 91 b3 3f
       0.15013478581869574 0.07644395779170615
000290 b4 9f ad 7f c9 16 8d 3f 48 d4 5e 08 d0 63 bc 3f
       0.01420361920254707 0.11089801983219261
0002a0 a3 ff 39 1b 81 a0 b7 3f 64 59 81 92 6f e2 b9 3f
       0.0922928515883528 0.10111138655461144
0002b0 2c f9 06 05 a1 57 a9 3f 26 aa dc e2 f7 94 c3 3f
       0.04949668108337088 0.15298365189785662
0002c0 3b ce ff d7 2e 83 c2 3f 77 65 0c 98 45 56 a9 bf
       0.14462838694417876 -0.049486326990698375
0002d0 ad a4 3f 1a 58 93 99 3f 76 53 6c 2d 37 d4 87 3f
       0.02497613582810192 0.011635237764076694
0002e0 9c 3f 3d 7f f9 f0 c3 3f 20 73 22 14 97 c3 bc 3f
       0.15579146111349196 0.11235946885649328
0002f0 fc 03 97 77 d5 e0 b0 3f e4 fe 50 27 80 1f bc 3f
       0.06593069238353161 0.10985566100952898
000300 eb b1 6f e3 bd ae b9 3f 80 20 fb ff d7 4d 71 bf
       0.10032259752887966 -0.004224628209790748
000310 e4 4a 32 c6 99 37 ba 3f fd 64 9a d1 cd 8f b1 3f
       0.10241089905529638 0.06860052459014195
000320 52 c0 75 ba 71 19 aa 3f 82 1e f5 a4 97 89 b7 3f
       0.05097537423250799 0.09194324281008373
000330 38 df 1c 58 3b 17 b8 3f d6 00 55 e1 d5 4e ab 3f
       0.09410448933783477 0.0533358419002085
000340 d5 e9 7f 10 d5 18 9e bf b5 08 0f ca 51 32 c2 3f
       -0.029391602642116006 0.14216062894963036
000350 13 7a 8c a3 3a 2f bc 3f f6 52 9e bb ed 32 85 bf
       0.11009565823449234 -0.010351044929657754
000360 20 8e 38 76 f2 fa b8 bf 76 32 f0 38 d7 c3 79 3f
       -0.09757914911511323 0.006290283882674266
000370 94 8e d7 06 2e da b4 bf 46 52 4e 86 04 ba 5c bf
       -0.08145415942231643 -0.001753334444605363
000380 0b bc 6b 72 d5 cc 82 bf 2c c9 a3 91 94 3b 65 3f
       -0.009179751924845566 0.002591886685984998
000390 86 39 7e bf 6e 1b c5 3f f1 f3 01 fd b6 cc b5 3f
       0.16489967680213286 0.08515494992202811
0003a0 e1 b8 68 24 ef 2d b8 3f c2 36 3e 34 f1 fb b3 3f
       0.09445089949506126 0.07806308293785505
0003b0 53 12 d0 4c e6 73 6c 3f a9 19 82 51 cb ac b0 3f
       0.003473233990464211 0.06513663043924701
0003c0 4a 5c bd 9b 2f 1f 8a bf be bf f4 27 e0 73 c8 3f
       -0.01275479501752676 0.1910362429712204
0003d0 a0 d3 6c 85 7c 4f a9 3f 67 46 7e bb 10 6e c0 3f
       0.04943455818867126 0.12835892825073644
0003e0 00 00 00 20 09 4b b4 bf 92 7b 61 35 3b fb c1 3f
       -0.07926995307207108 0.14047947031482672
0003f0 a4 7d a6 03 22 01 be 3f f4 b6 09 06 16 ab b3 3f
       0.11720478619689928 0.07682931563769185

encoder.2.weight f8 [32, 128]
000000 19 ba 20 7c ec 95 b4 3f 6d b9 18 b2 9b a4 c4 3f
       0.08041265516724429 0.1612734431850628
000010 5c 68 7c 1a a6 f2 b3 3f bb dc 36 45 0e eb ba bf
       0.07792127749090255 -0.10514916600992567
000020 cf be e9 4a f4 31 a1 bf 7a 15 2a bc 0f a7 87 3f
       -0.03358424581972274 0.011549113206693152
000030 cb a2 bb 8b 9b 06 c6 3f 4d 46 ee 39 5d 8c a3 3f
       0.17207664797685704 0.03818026859438515
000040 4d 51 ba ce b7 18 78 bf 74 d6 e3 17 34 9b b4 3f
       -0.005882947920003834 0.08049321730853781
000050 d8 cd a5 f3 29 7e 9b 3f cf 7b 11 80 e8 6b 90 3f
       0.026848464485238782 0.01603663713137476
000060 00 00 00 00 c6 93 a6 bf 9c 69 06 40 b2 c3 b2 3f
       -0.044096171855926514 0.07329858840095088
000070 c2 b5 18 74 3a 4b be 3f 1b d6 69 7e 9e a1 e2 3f
       0.11833539327991274 0.5822288960468457
000080 74 02 a8 a6 fb 25 a6 3f e1 42 17 78 ca ab d4 3f
       0.0432585373819209 0.3229852841150614
000090 e9 0c 26 9e 23 ca a5 bf 4f 68 30 a4 97 68 d4 3f
       -0.04255782418752025 0.31888381036845187
0000a0 99 d1 c9 8c b9 71 a1 3f d8 a0 bc f7 5b bf d5 3f
       0.03407077640159457 0.3398046416573499
0000b0 4b 79 27 80 c7 3d e2 3f af 29 6f 73 a8 e6 ad bf
       0.5700414183627712 -0.058400405970661644
0000c0 4c 3f 4e 21 a1 30 89 3f f3 0c 78 a7 8b ac 9b 3f
       0.012299784497173193 0.02702539643906916
0000d0 ac 41 c1 54 b6 42 b3 bf 7a e7 0d b4 72 72 d2 bf
       -0.07523669785701398 -0.2882353552191642
0000e0 10 ed 1c 23 98 b7 b0 3f a6 61 00 e5 7a 7d b6 3f
       0.06530142647982395 0.08785217371803941
0000f0 00 42 42 92 f3 71 a6 3f 23 c4 e4 ec f2 26 8a bf
       0.04383813057313901 -0.01276960168306302
000100 cd c4 ef 01 85 de b8 bf 05 1c ad 67 e0 6c c2 3f
       -0.09714537904052918 0.14394764959635623
000110 bf 25 16 c7 62 8f d4 3f 12 dd 5d 5b 4d 44 b5 3f
       0.32125157777826624 0.08307345848685468
000120 e7 b7 d5 ba bc 96 86 3f 2b 17 92 a8 b5 43 d5 3f
       0.011029695941683527 0.33225766622523406
000130 b8 87 42 df be 2f b3 3f 9f e7 3b 5b 99 27 c6 bf
       0.07494728995018718 -0.17308346705231956
000140 27 6c 74 53 d8 86 90 bf 09 17 bc 45 31 05 d6 3f
       -0.016139392942118882 0.344066923237151
000150 2e af fa db 74 61 72 bf 0b c7 c0 49 d0 af e4 3f
       -0.004487472993485215 0.6464616241921431
000160 d2 09 30 b8 45 7e b3 bf 3f ca 3c 2c 8f d8 81 3f
       -0.07614551302689357 0.008713835275192426
000170 79 e5 a0 bb 77 85 ce 3f 16 1c ec d3 85 8c b1 3f
       0.23844811116741108 0.06855045722851147
000180 08 bb e3 da 86 20 a3 3f e2 ff 79 4e b9 f3 95 bf
       0.03735753461829999 -0.021437545218304772
000190 81 c7 8f 31 c5 d2 ba bf a6 b8 34 bd 49 c7 af bf
       -0.10477859935761381 -0.06206732210772374
0001a0 02 1b b1 91 d9 4c b7 3f 7d 7d a5 5d a1 b6 93 bf
       0.0910163860981861 -0.019251366940236537
0001b0 70 cb f2 28 fa 56 b4 bf 7c a7 78 9e 18 17 80 3f
       -0.07945216655461507 0.007856552444611024
0001c0 45 52 e6 aa e9 a0 cf 3f 7a 0e 12 36 c3 ff a8 bf
       0.2470981678458363 -0.0488263133529729
0001d0 30 0d ce a9 e5 82 78 3f 08 b2 45 f5 30 89 d2 3f
       0.005984208223597506 0.28962348892562817
0001e0 fc 41 fa dc 0e 5e bd bf 0a 4e 29 c9 d7 7a bc bf
       -0.11471646208725156 -0.11124943410077762
0001f0 20 f4 f9 de ad 88 8b bf 40 61 57 57 9d 46 ac 3f
       -0.013444288603972565 0.05522624674967114
000200 1e 5c 31 9b ef 3d b4 bf c6 9f 6c 9f e4 1f 89 3f
       -0.07907006777655609 0.012267862429851461
000210 b0 29 59 b1 7c 22 b7 3f ed 70 89 60 12 03 a5 bf
       0.09036998109619421 -0.04103906086376861
000220 80 6b e6 cd e4 f4 b6 3f ff fc bc 47 84 02 72 bf
       0.08967428233010644 -0.00439693138088093
000230 c7 d5 0b cc ca 94 9b bf 1a 33 1d 31 0b df 91 3f
       -0.026934784606927466 0.017452406761822116
000240 0a 75 05 62 3a 60 c1 3f 5a 1d 79 8a 4e c1 cf 3f
       0.13574914728352666 0.24808675538427388
000250 17 47 96 8b 33 8c aa 3f 7c 9f cc e4 af f1 d5 3f
       0.05185090140288489 0.34287640899355387
000260 a5 c1 8d 4b 03 50 dd 3f 84 25 9c bb 3a fa 64 bf
       0.45800859812063727 -0.0025607249380114622
000270 37 58 1d db 65 c8 99 3f 5f 13 2e 46 09 cc a6 bf
       0.025178519724555506 -0.044525422875301805
000280 f9 75 a9 5c 9d a1 98 3f df bd 19 ef 3b 21 90 3f
       0.024054011135708795 0.01575177809576
000290 a7 e9 0c d1 c0 ed b6 bf ff 95 38 33 c7 c2 b9 bf
       -0.08956532577295793 -0.10062832832826273
0002a0 ef 73 8f 9d 9a c8 b5 3f 79 40 db 8f 08 01 d0 3f
       0.08509222361267609 0.25006307648164455
0002b0 98 59 62 19 d3 d6 a8 3f a1 30 c5 bf 8b c3 9e 3f
       0.04851398167481874 0.03004282339070186
0002c0 e1 41 c5 8f 8c 3c a9 bf 07 3c 16 ff 3c a0 c3 3f
       -0.04929007773410255 0.1533275838414456
0002d0 54 5d ec 54 8a 62 a1 bf b8 fb 95 48 b3 2c b2 3f
       -0.033954928270925194 0.07099457285038013
0002e0 30 6c 2f 5b e2 04 a1 bf 7b 70 01 13 e7 97 b7 3f
       -0.03324038851834421 0.09216160024647195
0002f0 42 d4 53 5f e2 0d b9 3f 2c 90 3d 2d c5 f9 ba 3f
       0.09786810710268504 0.1053736911249536
000300 b0 9c 8d cf a3 0b 8c bf 12 77 22 73 fb df bf bf
       -0.013694076320190568 -0.12451144753364599
000310 29 b5 2f 9b 74 c0 b5 3f 5e 77 a8 27 c5 98 9a bf
       0.08496788777093357 -0.02597339682153376
000320 a3 d5 e3 d5 39 8a 9a 3f ce 71 93 7d 8c 47 b0 3f
       0.025917915038879646 0.06359174791163655
000330 d5 23 db 50 13 41 b8 bf 4a 97 33 2a 96 ea 68 bf
       -0.09474297260307137 -0.0030415470988484393
000340 bd 30 8a 59 23 24 c4 3f 41 20 ec 94 18 32 96 3f
       0.1573528468328557 0.021675476159572552
000350 4e 7f 59 98 ed 04 c2 3f c8 c7 46 dc 21 f5 8c 3f
       0.14077539385743382 0.01413942769508826
000360 be 8c ee f9 5c 6d b5 bf 6e 00 d7 98 21 04 a6 3f
       -0.08369999982692186 0.043000268847664155
000370 16 64 b1 fe e0 fb b0 bf 04 c7 85 be d3 d4 ca bf
       -0.06634336679543681 -0.20961996844157949
000380 24 74 aa 2a be 73 86 bf f7 cc 38 98 85 e1 c5 bf
       -0.010962949444826071 -0.1709448807974707
000390 c5 da 39 fb 5a 6b c0 3f a2 71 3c ee d4 f2 ad 3f
       0.12827622668165453 0.05849328430324198
0003a0 e7 fe 44 b8 88 b7 8e bf e9 d2 8c 0f 26 23 c1 3f
       -0.014998500941714578 0.13388515242845436
0003b0 ea c8 01 68 d8 a3 a8 bf 27 07 8c 49 77 c9 b6 bf
       -0.048125040718234605 -0.08901162667828243
0003c0 be 76 ed 7b 22 25 86 3f e2 d8 00 b6 76 9a d2 3f
       0.010813016325922017 0.29067771695862465
0003d0 68 a8 e1 2c 7c 60 c2 bf 2f 2c 46 76 55 64 8f bf
       -0.14356949035147015 -0.015328090354861683
0003e0 00 00 00 00 d3 ab 97 bf 68 af d9 9d 02 f1 a2 3f
       -0.023116394877433777 0.03699501206287331
0003f0 37 37 52 14 2d 80 a2 bf dc 23 a0 d3 bb a7 9f bf
       -0.03613415597020125 -0.030913290778730715
000400 00 00 00 40 bd b2 b0 bf 00 00 00 00 95 db 83 3f
       -0.06522734463214874 0.00969616323709488
000410 00 00 00 20 6d 9a ac bf 00 00 00 60 34 f9 b2 3f
       -0.05586567893624306 0.07411506026983261
000420 00 00 00 40 ad cc b1 bf 00 00 00 00 1c 1c 87 3f
       -0.06952936947345734 0.011284083127975464
000430 00 00 00 40 90 2d af 3f 00 00 00 40 8c 45 a7 3f
       0.060894496738910675 0.045452482998371124
000440 00 00 00 c0 a4 7a b4 bf 00 00 00 e0 04 93 b6 bf
       -0.07999639213085175 -0.08818083256483078
000450 00 00 00 c0 15 2d b6 bf 00 00 00 a0 80 81 ad bf
       -0.08662544190883636 -0.05762865021824837
000460 00 00 00 00 92 a9 a0 3f 00 00 00 00 a7 63 b6 bf
       0.032543718814849854 -0.08745807409286499
000470 00 00 00 00 1a 12 8f 3f 00 00 00 40 8d 06 a0 bf
       0.015171244740486145 -0.03129998594522476
000480 00 00 00 00 ce 7e 86 bf 00 00 00 e0 60 22 a2 bf
       -0.010984048247337341 -0.03541853651404381
000490 00 00 00 00 98 1d 5f 3f 00 00 00 a0 66 96 b6 bf
       0.0018991455435752869 -0.08823243528604507
0004a0 00 00 00 00 24 e7 ae bf 00 00 00 80 17 af 9c 3f
       -0.06035721302032471 0.02801167219877243
0004b0 00 00 00 00 54 55 75 3f 00 00 00 c0 76 d1 a9 3f
       0.005208328366279602 0.05042620748281479
0004c0 00 00 00 60 7b 9c b4 bf 00 00 00 00 90 87 8d 3f
       -0.08051272481679916 0.014418721199035645
0004d0 00 00 00 c0 a0 98 b4 bf 00 00 00 60 c5 8b b1 3f
       -0.08045391738414764 0.06853898614645004
0004e0 00 00 00 c0 7f 1d ad bf 00 00 00 80 6d 53 93 3f
       -0.05686568468809128 0.0188729390501976
0004f0 00 00 00 00 72 c1 91 bf 00 00 00 40 ac 84 a3 3f
       -0.017339497804641724 0.03812158852815628
000500 00 00 00 a0 5e c5 a4 bf 00 00 00 00 54 be 88 3f
       -0.040568310767412186 0.012081772089004517
000510 00 00 00 80 96 02 a4 bf 00 00 00 e0 ab cd a0 bf
       -0.03908224403858185 -0.032819148153066635
000520 00 00 00 00 60 04 4f bf 00 00 00 60 71 20 b1 3f
       -0.0009465664625167847 0.06690128892660141
000530 00 00 00 00 61 12 83 bf 00 00 00 a0 76 96 a5 bf
       -0.009312398731708527 -0.04216356948018074
000540 00 00 00 e0 de 9e b2 bf 00 00 00 60 e0 26 ac bf
       -0.07273667305707932 -0.05498410388827324
000550 00 00 00 00 33 5e 92 bf 00 00 00 a0 4e 86 b3 3f
       -0.017937466502189636 0.07626811414957047
000560 00 00 00 40 a6 6a a9 3f 00 00 00 40 15 08 b2 bf
       0.049641795456409454 -0.07043583691120148
000570 00 00 00 80 c9 6a 92 3f 00 00 00 c0 10 8c b3 bf
       0.01798548549413681 -0.07635597884654999
000580 00 00 00 80 6e 58 b6 bf 00 00 00 40 f6 b0 a0 bf
       -0.08728685975074768 -0.03260011225938797
000590 00 00 00 00 cc ad 77 3f 00 00 00 00 88 06 5d bf
       0.0057809799909591675 -0.001771576702594757
0005a0 00 00 00 20 70 48 b3 3f 00 00 00 20 36 20 b6 3f
       0.07532406598329544 0.08642900735139847
0005b0 00 00 00 00 7c 6c 68 bf 00 00 00 80 34 d0 96 3f
       -0.002981416881084442 0.022278614342212677
0005c0 00 00 00 e0 33 0c b4 3f 00 00 00 00 6e a3 9d 3f
       0.07831119745969772 0.028943747282028198
0005d0 00 00 00 00 e0 68 55 bf 00 00 00 00 c4 19 8b 3f
       -0.0013067424297332764 0.01323273777961731
0005e0 00 00 00 00 2c ef 81 bf 00 00 00 c0 ac ec a7 3f
       -0.008756965398788452 0.046727560460567474
0005f0 00 00 00 00 b2 61 7f 3f 00 00 00 c0 67 5f b3 bf
       0.0076615288853645325 -0.07567451894283295
000600 00 00 00 c0 84 f5 a6 3f 00 00 00 00 bc 32 89 3f
       0.04484190791845322 0.012303799390792847
000610 00 00 00 00 8d 71 85 3f 00 00 00 c0 64 a2 b2 bf
       0.010470487177371979 -0.07279042899608612
000620 00 00 00 80 29 1b a1 bf 00 00 00 80 7b 13 91 bf
       -0.03341035544872284 -0.016675882041454315
000630 00 00 00 20 30 ae b1 3f 00 00 00 e0 13 09 b3 3f
       0.06906414777040482 0.07435726374387741
000640 00 00 00 60 29 f1 a7 bf 00 00 00 a0 99 a8 b2 3f
       -0.04676179215312004 0.07288513332605362
000650 00 00 00 00 d0 e2 5d bf 00 00 00 00 3e ae 8c bf
       -0.0018240958452224731 -0.014004215598106384
000660 00 00 00 80 6d d5 9e bf 00 00 00 c0 92 f0 a4 3f
       -0.03011103719472885 0.040897928178310394
000670 00 00 00 80 94 40 92 3f 00 00 00 e0 77 41 af bf
       0.017824478447437286 -0.061046358197927475
000680 00 00 00 20 f8 8a b4 bf 00 00 00 a0 81 e0 aa bf
       -0.0802455022931099 -0.052494097501039505
000690 00 00 00 e0 c9 09 b3 bf 00 00 00 e0 c8 31 b6 bf
       -0.07436811178922653 -0.08669715374708176
0006a0 00 00 00 c0 5e 91 9c bf 00 00 00 40 14 f8 aa 3f
       -0.027898292988538742 0.05267394334077835
0006b0 00 00 00 c0 f3 c6 a3 bf 00 00 00 20 8a 86 b2 bf
       -0.0386272594332695 -0.0723654106259346
0006c0 00 00 00 00 1d 0b 8e bf 00 00 00 a0 4b 19 ad bf
       -0.014669634401798248 -0.05683361366391182
0006d0 00 00 00 20 9e 40 b3 3f 00 00 00 00 89 a5 98 bf
       0.07520473748445511 -0.024068966507911682
0006e0 00 00 00 00 6e eb b4 bf 00 00 00 00 53 42 92 bf
       -0.08171737194061279 -0.01783113181591034
0006f0 00 00 00 00 db c0 b4 bf 00 00 00 e0 b3 58 a7 bf
       -0.08106774091720581 -0.04559862241148949
000700 00 00 00 80 e8 eb 96 bf 00 00 00 40 c8 02 aa 3f
       -0.022384293377399445 0.050802476704120636
000710 00 00 00 00 9a ce ad bf 00 00 00 40 24 53 b6 bf
       -0.058216869831085205 -0.08720614016056061
000720 00 00 00 80 66 a2 a6 bf 00 00 00 00 3c 79 a1 3f
       -0.04420776665210724 0.03412806987762451
000730 00 00 00 40 e9 fc ab bf 00 00 00 60 a8 ed b3 3f
       -0.05466393381357193 0.07784511893987656
000740 00 00 00 40 8c 1c a4 3f 00 00 00 00 1e de 76 3f
       0.039280302822589874 0.005582921206951141
000750 00 00 00 00 cf 0b 97 bf 00 00 00 20 f3 1e a0 bf
       -0.022505983710289 -0.03148612752556801
000760 00 00 00 00 4f 37 ae bf 00 00 00 40 5b 37 b3 bf
       -0.05901572108268738 -0.07506342232227325
000770 00 00 00 80 65 4c aa bf 00 00 00 40 a8 b2 aa 3f
       -0.05136410892009735 0.05214429646730423
000780 00 00 00 c0 84 a2 aa bf 00 00 00 60 3d f0 a5 bf
       -0.05202116817235947 -0.042848508805036545
000790 00 00 00 40 07 11 a6 3f 00 00 00 20 ce b5 a4 bf
       0.04309866577386856 -0.040449563413858414
0007a0 00 00 00 40 40 b6 b5 bf 00 00 00 40 0f 5e ad 3f
       -0.08481217920780182 0.05735824257135391
0007b0 00 00 00 c0 af ae a8 bf 00 00 00 40 9b 36 a3 3f
       -0.04820775240659714 0.03752598911523819
0007c0 00 00 00 a0 ef 04 b5 bf 00 00 00 00 45 d1 82 bf
       -0.0821065679192543 -0.009188212454319
0007d0 00 00 00 40 b4 ef ae 3f 00 00 00 00 a2 1d 88 bf
       0.06042254716157913 -0.011775270104408264
0007e0 00 00 00 40 55 eb a9 3f 00 00 00 00 18 a1 98 bf
       0.0506235733628273 -0.024052023887634277
0007f0 00 00 00 80 b2 7d 95 bf 00 00 00 00 12 83 8d 3f
       -0.020987309515476227 0.014410153031349182

encoder.2.bias f8 [32]
000000 53 b4 23 f2 b6 08 ba 3f 00 00 00 80 c7 c7 91 bf
       0.10169547473533784 -0.017363660037517548
000010 f5 3b f3 a7 9b 32 b2 3f 63 b2 c9 8a 8c 4e 9f bf
       0.0710847172770029 -0.030573078127803643
000020 c2 ca 13 1c 13 79 b9 3f 00 00 00 80 fc 0a 97 bf
       0.099503702502072 -0.022502847015857697
000030 e9 0d e6 88 47 d2 b1 bf 24 fc d0 fb b4 bb b4 bf
       -0.06961485950710479 -0.08098918102130931
000040 f7 18 ae 8d 3f 32 b5 3f 7d f7 08 cd eb bf a8 3f
       0.08279797753320738 0.04833924177044844
000050 64 b2 fb 4d 23 60 92 bf c4 d7 ce 6c 57 43 56 bf
       -0.01794486201736091 -0.0013588289032049209
000060 a6 0d 3f 3f 34 4b bb 3f 25 68 7d 2e db 49 a3 bf
       0.10661627334689303 -0.037672852921517376
000070 4e 73 92 39 11 15 b1 3f 29 91 9c 8a f6 ba c2 3f
       0.06672771125381624 0.1463306595625309
000080 81 4c fd 61 0c f8 b6 3f dd ee a3 3f a2 84 c1 3f
       0.0897224177581837 0.13686016185226083
000090 73 e5 c5 27 7b 2f 8e 3f e8 57 5f 5e 21 6f b8 3f
       0.0147390004647032 0.0954457145120099
0000a0 4c 6f 98 c5 e1 b2 ba 3f 00 00 00 00 d2 c3 8a 3f
       0.10429202150447486 0.013068810105323792
0000b0 65 e9 f7 46 58 aa b8 bf cd 65 f5 99 78 58 9f 3f
       -0.09634925587298467 0.03061092796028735
0000c0 6c eb f5 d1 05 97 9e bf 43 1a c4 2f ad a9 bb 3f
       -0.029872981014232122 0.10805780807650316
0000d0 00 00 00 80 2e 15 b0 bf 0a 62 4b b9 78 0e bb 3f
       -0.06282320618629456 0.10568956874647753
0000e0 b3 88 77 49 d7 90 bf 3f cc c8 47 29 af a2 be 3f
       0.12330384772897922 0.11966986425230458
0000f0 5c 18 f5 6d 79 61 b2 3f 04 40 37 c2 fd 88 7f bf
       0.07179984030253322 -0.0076990044066889175

encoder.4.weight f8 [12, 32]
000000 e3 ec ef 16 a5 ba 91 3f 00 00 00 80 4c c3 a2 bf
       0.01731355621812448 -0.03664626181125641
000010 d9 11 db 86 e2 64 96 3f f3 49 23 e8 f4 d6 b6 bf
       0.02186922023862956 -0.08921747844150456
000020 8f 90 8b fc 98 12 a4 3f 00 00 00 00 e6 13 a7 3f
       0.0392043884546932 0.04507368803024292
000030 00 00 00 00 aa b2 83 bf 00 00 00 00 cb 02 b2 3f
       -0.009618118405342102 0.0703551173210144
000040 95 fb 25 5d 52 fb bd 3f aa 3d c6 14 71 84 a3 3f
       0.11711611532335404 0.03811982515901076
000050 50 1a ad 8f 6b 91 bb 3f 00 00 00 40 32 21 ba 3f
       0.10768768556327157 0.10206903517246246
000060 a2 c3 01 0b 8a f3 ad bf b5 cd 6c 6e 17 7c bc bf
       -0.05849868187295405 -0.11126848646090688
000070 00 00 00 00 f2 b6 b2 bf b8 13 96 54 8b 1a c7 bf
       -0.07310402393341064 -0.1804975665110342
000080 a6 d7 7e 13 08 23 c9 bf 6e 57 2a 97 a4 a7 c7 bf
       -0.1963815779869808 -0.1848035562622345
000090 98 33 7e 4a 5c 7c a6 bf 05 27 ea a2 22 12 6d 3f
       -0.0439175454076583 0.0035486866466428756
0000a0 25 bf b7 9c 78 68 c2 bf 00 00 00 80 3f 8a a6 bf
       -0.14381320621714014 -0.04402349889278412
0000b0 00 00 00 c0 53 42 b3 3f 84 5e c4 e6 9a 29 82 bf
       0.07523082196712494 -0.008868417899562837
0000c0 00 00 00 00 71 ac 95 bf 1c 8a fb eb 8b f6 b8 bf
       -0.021165624260902405 -0.09751200209897387
0000d0 00 00 00 80 1a d8 bd bf bd 20 7e 7f 9e 2d b3 bf
       -0.11657872796058655 -0.0749148427258914
0000e0 5f af 37 a1 a9 73 c1 3f c2 4c 6e f3 83 4f 96 3f
       0.13634224292706684 0.02178770230564165
0000f0 38 66 9e 62 69 e8 ab bf 00 00 00 20 ae 0a c0 bf
       -0.054507535255833905 -0.12532593309879303
000100 fc ae c8 32 77 94 c4 bf 00 00 00 00 da 57 a8 3f
       -0.16078081111606213 0.04754525423049927
000110 62 70 e5 df 5d ae c7 bf b5 fc 1b 76 4d f3 c3 3f
       -0.1850087493174924 0.15586250559861062
000120 f8 e1 36 82 89 1a cd 3f 00 00 00 e0 65 42 c3 3f
       0.22737234933971684 0.15046380460262299
000130 0c a4 df 4f 3a 5a bf 3f 89 34 b1 56 61 7d 90 3f
       0.12247051668204295 0.016103287616989568
000140 87 57 3c be 6f 83 bd 3f 98 3d 73 ff 20 3a cd bf
       0.1152868117754605 -0.22833645318176532
000150 56 a7 9b 38 ed 34 97 bf d6 8a 3a bf 6f 45 88 3f
       -0.022662836628035997 0.01185118963559743
000160 89 3c 05 a8 1e 1e b7 3f 61 c5 40 e1 05 10 c1 3f
       0.09030334093152893 0.13330148218805518
000170 84 f8 bd f5 92 53 87 bf f9 18 94 a2 bb 4d cf 3f
       -0.011389873623326226 0.2445597213592874
000180 c4 1e a8 ba 90 78 cc 3f 42 63 70 06 b4 b8 d0 3f
       0.22242936243150357 0.2612733900910379
000190 cf 59 e1 b0 ce 22 a0 3f e5 f6 43 26 c6 f8 cc 3f
       0.03151555928404869 0.22634198063308655
0001a0 3e ce 40 f8 b2 2b 86 bf 00 00 00 80 26 06 c2 bf
       -0.01082553691967469 -0.1408126950263977
0001b0 72 bb a3 1a ac ba b1 3f a1 1f c0 05 05 63 cb 3f
       0.06925464296703668 0.2139593389585999
0001c0 74 55 a9 14 6f fa c4 bf d0 11 28 81 9e 11 c6 3f
       -0.16389263638363227 0.17241269403906623
0001d0 00 00 00 00 4b 41 ba bf 4c 98 04 bf b5 85 ae 3f
       -0.10255879163742065 0.059613875930424415
0001e0 3d 02 16 6d 23 26 91 bf 2b 88 65 6d 02 38 c6 bf
       -0.016747048886374783 -0.17358427373534488
0001f0 aa dd 26 31 43 f6 be bf 07 2f 69 33 21 17 b8 bf
       -0.1209451670646248 -0.09410293107174193
000200 38 d7 81 2e 3f 5a a2 bf 00 00 00 60 8f 39 b9 bf
       -0.03584477846827244 -0.09853454679250717
000210 ca 3c 0e 47 ce 30 7e 3f 59 69 14 89 fb 3a c2 3f
       0.00737076356098427 0.14242500489565194
000220 a9 04 37 9c bb c3 b7 3f 00 00 00 00 a4 a7 78 bf
       0.09283039630737967 -0.0060192495584487915
000230 00 00 00 60 e3 f6 bb bf 00 00 00 00 b6 8f a6 3f
       -0.1092359647154808 0.04406517744064331
000240 0e 5d be b0 ca 9b 97 bf a2 fa cc 35 c7 c6 bb 3f
       -0.023055235898565 0.10850186408513676
000250 00 00 00 00 0b 5d a5 3f 00 00 00 80 29 0f ae 3f
       0.041725486516952515 0.05870942771434784
000260 b8 0a dc 5f f0 d6 b1 bf 28 6d 50 2d dc a2 95 3f
       -0.06968595829315916 0.021129074350125482
000270 00 00 00 00 c7 ee b0 3f 5d 4e 2e f9 06 2d af 3f
       0.0661434531211853 0.06089040557631329
000280 7f ff fe 85 1a b2 c3 bf 9b e1 fa 37 ff ea b6 bf
       -0.15387279074456825 -0.08952326885890331
000290 af dc 27 e4 68 25 a6 3f 67 a5 81 36 c7 82 c3 bf
       0.043254163600005106 -0.152428533186405
0002a0 e8 8b b8 30 48 20 c0 bf 00 00 00 40 09 67 be bf
       -0.1259851682562776 -0.11875970661640167
0002b0 00 00 00 40 65 7f bf bf 9f 23 06 b8 e2 90 b5 bf
       -0.12303765118122101 -0.08424202912114119
0002c0 00 00 00 c0 99 c4 c4 bf 00 00 00 c0 6a d3 b2 3f
       -0.16224977374076843 0.07353846728801727
0002d0 00 00 00 60 29 f6 ba bf 39 2c 05 1d 33 0c c4 bf
       -0.10531862825155258 -0.1566223041248536
0002e0 6e 64 4e f4 84 c2 51 3f ba c9 35 d9 68 69 bf bf
       0.001083974683956403 -0.12270217230778871
0002f0 83 a5 ac e3 e7 9e 6f 3f 00 00 00 80 99 ea c3 bf
       0.003859951886074854 -0.15559691190719604
000300 90 3f 16 4b 6b 2a b0 3f 00 00 00 00 8a 9d 8a bf
       0.06314726432014894 -0.012995794415473938
000310 6a 2e 5c 55 4f 25 b5 3f 86 a9 85 d8 5c 72 b7 3f
       0.08260055383669287 0.09158878599342843
000320 f9 9e 5d 18 c8 f2 bf 3f 00 00 00 c0 76 54 c1 bf
       0.12479830355516332 -0.13539013266563416
000330 00 00 00 c0 f0 bb bd 3f 0f 92 cb 0a 48 c9 ac bf
       0.11614899337291718 -0.05622315532471955
000340 dc a5 9b 10 34 47 b3 3f 02 24 7b 0e d4 85 98 bf
       0.07530522733181705 -0.023948014625407417
000350 66 7f 74 d9 9b c1 c2 bf 00 00 00 40 da 3a b3 3f
       -0.1465334712784127 0.07511676847934723
000360 d7 6f e2 ef f0 54 9d bf 53 5a 46 c7 69 fe c4 3f
       -0.028644337312115766 0.16401407461372006
000370 00 00 00 20 67 20 c4 3f 2e 5e 5f e7 74 19 c3 3f
       0.15723885595798492 0.14921437547194344
000380 b5 d1 42 86 11 46 9a 3f fd 73 fe 47 81 de c8 3f
       0.025657914943353528 0.1942903138669009
000390 3d d8 aa 55 d2 86 9c bf 70 9e d0 76 bc 33 c7 3f
       -0.02785805366394122 0.181266363158318
0003a0 4d c9 b9 31 3e 30 ad bf 00 00 00 c0 1b d2 ba 3f
       -0.05700868947032465 0.10476849973201752
0003b0 85 1f 64 58 a9 63 ba 3f bc 01 a8 c8 4e b9 bd bf
       0.10308321388231263 -0.11610882185778498
0003c0 00 00 00 20 40 09 c0 3f 84 fc 70 ae 40 32 ae bf
       0.12528230249881744 -0.05897714738284157
0003d0 00 00 00 60 64 37 c2 bf ea d6 51 7e 3d 94 b8 3f
       -0.14231543242931366 0.096011966075675
0003e0 1a 21 c5 ef 52 00 c6 bf c6 ea b1 3f 52 ea be bf
       -0.17188488681336694 -0.12076295905164178
0003f0 9c b1 95 5c 02 44 ba bf 00 00 00 c0 d8 5f be 3f
       -0.10260023842210447 0.11865000426769257
000400 19 31 61 d0 61 2a aa 3f 00 00 00 c0 62 42 b1 3f
       0.051104599654168754 0.06741921603679657
000410 33 98 bb f3 cc 1d c2 3f 2b 43 ce f7 c2 f1 cb bf
       0.14153444195761863 -0.2183154783238249
000420 eb 00 5b 35 a8 bb c4 bf 00 00 00 40 36 11 c6 bf
       -0.16197683911560232 -0.17240026593208313
000430 00 00 00 00 00 cb 95 3f 82 f6 ca 8a a9 52 ae bf
       0.021282196044921875 -0.05922441310165728
000440 b7 8d d9 cc 06 d7 c2 3f 9c e8 75 4f fc dd b8 bf
       0.14718708994324256 -0.09713723125415402
000450 64 d4 b2 1a 46 9d bd 3f 8c 4c 7b 8a 20 2a a6 3f
       0.11568105842418813 0.04329015436601322
000460 e7 7b a9 18 28 cc d0 3f 52 08 42 cf 4d 2f c8 bf
       0.26246073158648503 -0.1889436017991693
000470 3f 2e b7 f2 c4 e2 b2 bf 27 df 1d 6b e3 5c cf 3f
       -0.07377272535011857 0.24502222757632205
000480 fe 55 4c 49 20 23 a6 bf b6 13 80 ec cb 95 a7 3f
       -0.0432367410159422 0.04606473218885958
000490 93 70 39 7c 0a b5 c3 3f 6a 64 df 78 96 86 cb 3f
       0.15396243158000242 0.21504479314788522
0004a0 be ec f2 61 82 dd d0 3f 00 00 00 00 56 0c af bf
       0.2635198551685781 -0.06064099073410034
0004b0 d1 57 33 ae 61 4c aa bf 7a a1 2c 1d 3f 7c b7 bf
       -0.05136399508926071 -0.09173960172905096
0004c0 00 00 00 00 f9 48 a4 3f bf 39 2f f4 40 17 93 bf
       0.039619237184524536 -0.018643393424832896
0004d0 00 00 00 c0 f8 0e b3 bf 32 1a 8f 04 d3 65 cd bf
       -0.07444719970226288 -0.22966993067366698
0004e0 97 ec de 87 ee ee c1 3f fd 8e 46 a0 aa 4d cd 3f
       0.1401041186744336 0.22893269372899985
0004f0 70 8e 6b 2e 76 73 ce 3f 63 a5 f4 80 76 73 c0 bf
       0.23789860979660515 -0.12852364823019533
000500 f7 13 6d 89 cb c8 a3 3f 00 00 00 00 0e f7 9c 3f
       0.03864131977619672 0.02828618884086609
000510 49 ff eb 71 48 55 c2 bf 95 5a 63 93 f5 82 b4 bf
       -0.14322763025847454 -0.08012328003256138
000520 57 bd e3 72 31 d6 87 bf 00 00 00 80 71 39 a5 bf
       -0.011639009779598792 -0.04145388305187225
000530 00 00 00 a0 6e 3e c3 bf 00 00 00 20 28 4f c0 bf
       -0.15034277737140656 -0.12741567194461823
000540 20 86 d1 ae 5e ae 99 3f b9 dc 8e 31 33 1d c2 3f
       0.025079230709144196 0.14151611251666
000550 be 7e 0a 49 78 95 c2 3f 00 00 00 20 50 05 c4 3f
       0.14518645826773552 0.15641213953495026
000560 b5 cc d1 89 61 f5 ab bf b4 b2 f0 7e 49 62 23 bf
       -0.054606483529732776 -0.00014788767973196936
000570 00 00 00 00 af 44 a3 3f 90 af 66 85 89 79 b6 bf
       0.03763338923454285 -0.08779201037276452
000580 f8 b9 36 ec 97 c3 b9 3f 31 95 33 34 01 ba b4 3f
       0.1006407691663539 0.08096320652437751
000590 71 b3 25 a0 87 f1 c1 bf 16 eb 64 db 11 65 c3 bf
       -0.14018340415659794 -0.1515219041119386
0005a0 6a 7f 6b d2 b6 95 cd bf 00 00 00 00 39 11 90 3f
       -0.23113141321573077 0.015690699219703674
0005b0 00 00 00 a0 3c 9c c1 3f 56 00 03 bb 3d 1e a7 bf
       0.13758046925067902 -0.04515259654863317
0005c0 00 00 00 00 87 40 94 bf 1f 9e 41 33 db ae be bf
       -0.01977740228176117 -0.11985559464812255
0005d0 00 00 00 e0 ff 17 c2 bf a2 c2 57 4c 1d 2f be bf
       -0.1413574069738388 -0.11790640939558242
0005e0 b2 ea 54 6b e0 d7 a1 3f c0 2a 5a bf d4 03 b2 bf
       0.03485013303948871 -0.07037095710453922
0005f0 12 20 c9 fa 2b df c7 bf 00 00 00 80 35 fc ab 3f
       -0.18649816270249225 0.05465857684612274
000600 b3 f9 38 3d ba c9 92 bf 00 00 00 00 80 78 27 3f
       -0.0183476543299947 0.00017906725406646729
000610 60 4a f1 5f 34 91 bd 3f 24 a4 1f f8 ed 7a bf 3f
       0.11549689619395442 0.12296950633721387
000620 28 e0 c0 08 af c8 b8 3f 00 00 00 00 63 e7 9e 3f
       0.09681219066340019 0.030179545283317566
000630 c0 41 33 a2 80 18 c1 bf 90 1f b9 2b b2 82 c4 3f
       -0.13356025619442669 0.1602385247699627
000640 33 bd bd 1c 11 53 b4 bf 59 e3 91 98 88 ac bf bf
       -0.07939249946297337 -0.12372640347338172
000650 16 59 2a b4 af 73 c1 3f 60 6f b5 c5 e0 80 c5 bf
       0.13634296700610865 -0.16799554494616142
000660 bb 48 a0 cd a8 af c1 3f 6b dc 59 b0 e8 1a a5 3f
       0.13817319908463851 0.04122092392656714
000670 0a 8c 30 19 89 ce bd 3f a7 58 f6 da 42 07 bd bf
       0.11643273224812858 -0.11339204641112365
000680 82 0a 28 06 09 6a c3 bf ad 5c 9a 14 d7 4a c2 3f
       -0.15167343903165792 0.14290894037251203
000690 ec d9 da 08 9f 20 b9 bf 13 c0 46 1d 32 2f c5 3f
       -0.0981540104502085 0.1655028002692239
0006a0 7d 21 98 83 10 b1 c2 3f 00 00 00 00 9c ed a1 bf
       0.1460285799551108 -0.03501594066619873
0006b0 76 e0 58 e0 d3 79 b5 3f 53 17 25 08 1f 46 b9 bf
       0.08389019229150727 -0.09872621487474235
0006c0 76 75 16 f2 bf d7 ad 3f cd 71 ea a8 07 e0 c0 3f
       0.058286665250515776 0.13183685062257525
0006d0 00 00 00 80 43 01 ba bf 28 2f 99 03 b8 c3 9b bf
       -0.10158178210258484 -0.02711379548990958
0006e0 fd 2d e2 3f 25 4a b1 3f ef 72 60 67 f2 89 86 bf
       0.06753762063652143 -0.011005300311859282
0006f0 df 34 6d b5 c5 4c d0 3f 4b 49 95 d6 52 18 88 bf
       0.25468580930176005 -0.011765143559988053
000700 29 02 38 4f 76 5d d5 3f 00 00 00 00 28 67 79 bf
       0.3338294767018249 -0.006201893091201782
000710 b4 a3 a0 b8 4d 32 d0 3f 0d 7b c8 41 c0 78 bb bf
       0.2530702879908475 -0.10731126409562482
000720 18 64 95 39 1f f5 a9 bf 00 00 00 c0 d1 b3 b9 3f
       -0.05069825723575877 0.10040007531642914
000730 0f 95 f9 cd 81 f7 a3 bf 98 c6 93 c2 10 23 b1 bf
       -0.03899770392744461 -0.06694130659505004
000740 df b4 a7 e6 20 1c c3 3f 4c 53 62 26 60 57 d5 3f
       0.1492959142919181 0.33345798252530723
000750 86 e4 c6 03 cb 59 b0 3f a5 2a 11 42 88 61 c0 bf
       0.06387013284883566 -0.1279764483063747
000760 de 46 2f 86 39 81 cb 3f 88 56 ac 5a 5d 0c a4 3f
       0.21488112499223794 0.039156834906106275
000770 9c df 96 f9 44 3d a6 bf ce 64 d5 c6 df e7 9f 3f
       -0.04343619868035306 0.03115796710094259
000780 87 39 57 ad a6 2a b9 bf 63 8a 87 7f 6c cc c1 bf
       -0.09830705387068948 -0.13905101992630184
000790 03 9c 2c c4 6f 71 b7 bf b8 e6 95 03 cf 61 c2 3f
       -0.09157465495501076 0.14360988307071465
0007a0 73 89 3f 29 9e 0c b3 bf 00 00 00 80 66 8b a5 3f
       -0.07441128260646739 0.04207916557788849
0007b0 22 f2 b0 ee 55 d7 af bf e0 96 27 f1 83 c9 bd bf
       -0.06218975580893395 -0.1163561309582195
0007c0 13 ba c1 87 5b 64 a0 bf a7 4c 08 3d a6 93 ba 3f
       -0.0320156672686275 0.10381545057343776
0007d0 00 00 00 80 6d 76 a1 bf ef ec db 4d 63 d4 c0 bf
       -0.03410665690898895 -0.13148156453812684
0007e0 ff 13 97 09 b4 69 d0 3f f7 f3 dd 4b 21 fc cc 3f
       0.2564516156820104 0.22644439892238186
0007f0 bb 43 1e 7f 6b 93 82 3f e0 44 cd 40 4c d0 ad bf
       0.00907024366077446 -0.058229811582927615

encoder.4.bias f8 [12]
000000 5c 41 ef a0 53 d4 ac bf 20 03 71 c9 3b a2 c8 3f
       -0.05630742396863539 0.19245097480782025
000010 d5 2e 34 15 79 34 af bf 5d 93 d0 15 7f da b9 bf
       -0.06094721206508572 -0.10099024088465343
000020 0d 0c 1f e3 f3 08 b5 3f e6 0b 7b f5 da 69 ca bf
       0.08216785712197368 -0.2063554476390827
000030 47 04 98 5e 53 3a 9f 3f 7a c8 8d c4 2a 30 c5 3f
       0.030495932243870063 0.16553244206767542
000040 ee 2b 0e b2 39 e4 b9 3f b8 cd 8a d4 67 fe b6 bf
       0.10113869282774576 -0.08981942118662445
000050 2e 22 1b 09 b8 91 c1 bf 51 fc ad b3 56 c0 b7 bf
       -0.1372594875777095 -0.09277860533437489
