9_dagmm.pth (torch, 322293 bytes, 16 tensors)

encoder.0.weight f8 [128, 118]
0	0x3fa508fd50e30f6b	0.04108420956029487
1	0x3fbebe571111f884	0.12009185950043572
2	0xbfc5308ba993135b	-0.16554399280553408
3	0x3fc0926125247c69	0.12946714700317166
4	0xbf9a94dc37e44d42	-0.025958481704106313
5	0xbfc601a826eb4c37	-0.1719255628619025
6	0xbfe5dd9835e29695	-0.683300118679386
7	0xbf911245b1e37d9d	-0.016671265585385
8	0xbfbd6c952610a102	-0.11493808917350992
9	0xbfb6d7e53d2acec9	-0.08923180335369375
10	0xbf9d719c688c65b6	-0.028753703957681252
11	0xbfc730282a3e740f	-0.1811571317929581
12	0xbfb9663017b4ee06	-0.0992155130269837
13	0xbfe35914b07058dc	-0.6046241231986431
14	0xbfaef99653191725	-0.06049794926052091
15	0xbfbf7afba6d1e0f8	-0.12297032187223411
16	0xbfb9a3d59508320c	-0.10015616310574432
17	0xbfa9c244729abfaf	-0.05031026743870314
18	0xbfc158208c2ea4ba	-0.1355019268496898
19	0xbfba50f1050f73cc	-0.1027975690225979
20	0xbfcd3d4793e7e5a5	-0.22843260499921061
21	0xbf50c49227663af1	-0.0010234286579337527
22	0xbfe2a9d01639881d	-0.5832291063381977
23	0xbfe2041989a20ffa	-0.5630004585404997
24	0xbfc4cd914c4b343e	-0.1625234243896631
25	0x3f9b5ae8082405fa	0.02671396779715527
26	0xbfb0015abcba9569	-0.06252066714895012
27	0xbfca3207be499646	-0.20465180198077543
28	0xbfcc1b75864a6e08	-0.21958798463025198
29	0xbfc0b9596845a81b	-0.13065641013537363
30	0xbfc7eab74f990478	-0.18685046564681662
31	0xbfbec516c59f5245	-0.1201948387600363
32	0xbfd0778ff3a00c40	-0.25729750434419785
33	0xbfd29b6361182f2c	-0.29073414308435264
34	0xbfa62fa6168214b4	-0.04333228134877612
35	0xbfc3367776ef519f	-0.15009969050755687
36	0xbfc71f28d667728b	-0.1806384131331423
37	0xbfab6b401c322de9	-0.053552630845924494
38	0xbfc02a8602329792	-0.12629771334939882
39	0xbfb8343b59c7c31d	-0.09454699460890166
40	0xbfc15e07988286f7	-0.13568205782672013
41	0xbfb710930dd75496	-0.09009665573042222
42	0x3fb5be5ed2000dd8	0.08493607165296824
43	0xbfda6e1a3b0fc571	-0.41297012107596404
44	0xbfaef0f400000000	-0.0604320764541626
45	0xbfbe73df89c77726	-0.11895558465718334
46	0xbf611880893af220	-0.00208687882135751
47	0xbfc03078ea28f4b4	-0.12647925790398562
48	0x3fc568481a7956dd	0.16724492352175604
49	0x3fb24a2b60000000	0.07144423574209213
50	0xbfb124ec4a0e1c18	-0.06696965034471736
51	0xbfd01b892833423f	-0.25168065000346823
52	0xbfcf4263cf013c7f	-0.24421355827005084
53	0x3f627c931cd7c821	0.002256667451313824
54	0xbfbee2eec0aee6cd	-0.12065021709613717
55	0xbf4f5cd7a8360db5	-0.0009571125996647364
56	0xbfb3cfe5f8117546	-0.07739102655746874
57	0xbfaf827e5297a0d8	-0.061542460996692305
58	0xbfb410661c5e642d	-0.07837522690387351
59	0xbfd221532f405962	-0.2832839929045773
60	0xbfad803c00000000	-0.05761897563934326
61	0xbfb41db820000000	-0.07857847958803177
62	0x3fa8d9e107e83880	0.048537285056327484
63	0x3fc1e4ac61739e1b	0.1397910571897548
64	0x3fb34c71a2c063d6	0.07538519118715156
65	0xbfae985f6bd48ca9	-0.05975626174247257
66	0xbfc4831796c5a383	-0.1602506147567305
67	0xbfc4f6057c82c08b	-0.1637579782450341
68	0xbfc868e59477bcdf	-0.1907011961879794
69	0x3fbac1c2c6fd0214	0.10451905592072591
70	0xbfa20a5db3747eee	-0.03523533645261333
71	0xbfba7205b331aa74	-0.1033023416982049
72	0x3faae72c4cbfb178	0.05254496037364026
73	0xbfbd47e7a518bf8a	-0.11437843113594517
74	0x3fc26aa69b4aa5b4	0.14387972433659757
75	0xbf8dc5e9fdd32f61	-0.014537647303221215
76	0xbfa7c6f12443fc17	-0.046439681698750394
77	0xbfb187d6c754f57f	-0.06847898832798725
78	0xbfb65471b30d35b9	-0.08722601529480913
79	0x3fb268e1db2d0b45	0.07191287613845272
80	0x3fc1c00aba7acd69	0.13867315392927118
81	0x3fba381a2aaa4d46	0.10241855184203982
82	0x3f9c3db3060a8c3a	0.027579114192701072
83	0x3fc4b89f54427944	0.16188422788850165
84	0xbfb885d84794bfff	-0.095792310214847
85	0x3fba74c883bb570b	0.10334447113140414
86	0x3fbfed1ab3dfae1a	0.12471167460869773
87	0x3fb6ddc83344ba61	0.0893216252486382
88	0xbfaed573a40c83df	-0.06022225740003483
89	0xbf8df40c910601f4	-0.014625642944111818
90	0x3fada5328dadd73f	0.05790098170738966
91	0xbf8048021388490d	-0.007949844571190324
92	0x3fb1f36b307444b7	0.07012052472079487
93	0x3fc8cf31245ae4a8	0.19382299685620308
94	0x3fb4f97f2ad210eb	0.08193201823639
95	0xbf87f2e1c0b76198	-0.011693729108558412
96	0x3fae808a40000000	0.0595744326710701
97	0x3fa72dbe40000000	0.04527086764574051
98	0x3fc8ac439c85273a	0.19275708334526503
99	0x3f95de2a13a4618d	0.021355302285060374
100	0xbf773823281c1704	-0.0056687711055525315
101	0x3fc18d2a3f5cb42c	0.13712051481107446
102	0x3fafd50eedea15e0	0.06217238096455069
103	0xbfa27e1fd8685f20	-0.036118502776103734
104	0x3faca337e29598f5	0.05593275681421687
105	0xbfada9b15862717a	-0.05793527797615901
106	0xbfc0ca4f3d815275	-0.13117399695569856
107	0x3fc9cf377c9ac4da	0.201636253206323
108	0x3fb6e66d71e41f8d	0.08945354490799513
109	0x3f9d88b51cc57ae9	0.028841810113017372
110	0xbfb1109b5509c558	-0.06665964914443145
111	0xbfc1c3196b400a0b	-0.1387664579088582
112	0xbfaabedc558c409d	-0.052237401430944554
113	0xbf969c3ae92b5620	-0.0220803456130253
114	0x3fa631504fdb8e74	0.04334498381447541
115	0x3fb7b179abfdc29f	0.09255180787091398
116	0xbfa5ca7a0dd2fbb2	-0.04256040018798703
117	0x3f59df72f588f7c0	0.0015791533134143915
118	0x3fc9b0b98e4ec993	0.20070571373578314
119	0xbfc4a8d9347cc63a	-0.16140284598218263
120	0x3fc538b51f549241	0.1657930758457429
121	0xbfb6afdaa0000000	-0.08862081915140152
122	0xbfb4799d80000000	-0.07998070120811462
123	0x3fc35b3d9c7ba2fe	0.15122194424409224
124	0x3fc5d9e2b818d1ae	0.17071184147938595
125	0x3fbdecddbbe42db6	0.11689554059210291
126	0x3fb79c578dafea12	0.09222933968695937
127	0x3fc33672022381d5	0.1500990400736685
128	0x3fca3da610e4255c	0.20500636887326606
129	0x3fc2d80412d71018	0.14721728248525845
130	0x3fc7f14887e4c4db	0.18705088267737477
131	0x3fcc698e6a4e0130	0.22197132292422728
132	0x3fc44296ee6b8fb9	0.15828215257272207
133	0x3fcccfa01ab41110	0.22508622459293592
134	0x3f81d8f269c72ba5	0.008714574673737216
135	0x3fc1612092206acc	0.13577658782090507
136	0x3fb5d810569a816a	0.08532812227577372
137	0x3fb20674e09dfcb6	0.0704110191709216
138	0x3fc29aac65cfd104	0.1453452584388587
139	0x3fc5652cd05d5c31	0.16715011762673407
140	0xbfa4601d2a950a40	-0.03979579109956832
141	0x3fd75e0e501fd20c	0.3651157171691757
142	0x3fd3ef4f894f180f	0.31148136529043396
143	0xbfbfba8937035123	-0.12394006341066137
144	0x3fc8b5076291fc96	0.1930245620060062
145	0x3fc757c8865568ce	0.18236643370875644
146	0x3fca5012cae95630	0.20556864650522888
147	0x3fc8668b59aa38cc	0.1906294048134839
148	0x3fc449bbe8df88d1	0.15850018378029643
149	0x3fb2db5aeb69744f	0.0736595940338287
150	0x3fd081f03b23eaf2	0.2579308106939343
151	0x3fd14952e9dbbb7d	0.27010033452727794
152	0x3fc315416cb5cf23	0.1490861683665737
153	0x3fd120404891cf47	0.2675934513747404
154	0x3fbb365f064df307	0.10629838851850702
155	0x3fbca7a995389639	0.11193332570163585
156	0x3fc8034483bdf3b7	0.18759972031321379
157	0x3fc9f76fa65e210d	0.20286365149900867
158	0x3fc85b8fe0b9eb46	0.19029425118409388
159	0x3fbc02ae31c0c92a	0.10941590037035512
160	0xbfb0eef5ad2f0752	-0.06614623525731858
161	0xbfc4b370b99e04d4	-0.16172608435957747
162	0xbfb32c8d80000000	-0.07489857077598572
163	0x3fd224908dead97c	0.2834817300712513
164	0x3fc578339a67fee1	0.16773076094977227
165	0x3fc294ae51e2515d	0.14516238210911583
166	0xbfb774c537a8de09	-0.09162552460554009
167	0xbfa6ba2700000000	-0.04438897967338562
168	0x3fd0b2bf284ed7b4	0.26090983330083906
169	0x3fd1e2f3e595b7b8	0.2794770948447609
170	0x3fc0fd90d7d67923	0.13273821391062154
171	0x3fbc65e59ecdb57b	0.11092982413329892
172	0x3fd01663c9145712	0.25136656414666547
173	0x3fc69a39a71b6a82	0.17658157977605887
174	0x3fc5d45761689ce3	0.17054264313012543
175	0x3fb78b8427d60011	0.09197259876782506
176	0x3fcb96d20edf74eb	0.21554017759527908
177	0x3fca9c09f20971c9	0.20788692777831688
178	0xbfa9b7bc40000000	-0.050229914486408234
179	0x3fb48f87a0000000	0.08031509071588516
180	0x3fb334204d46426e	0.07501413237174301
181	0xbfa838de42a921c8	-0.04730886996964362
182	0xbfb3720e5c209a5b	-0.07595910786822328
183	0x3fcf5d7c107666a2	0.2450404243834799
184	0x3fd224f1ff4dc1c6	0.28350496227269806
185	0x3fd03143db396fef	0.2530069008696491
186	0x3fcbab23c30d91ce	0.21616026901314317
187	0xbfb4d4bd0a1b1aeb	-0.08137113091207097
188	0xbfb4aa09974f1aa3	-0.08071956581179988
189	0xbfbf511b08980ad8	-0.1223313232403983
190	0xbfa0dc90c0000000	-0.03293278068304062
191	0xbfbc3a11e6b42612	-0.11026107675947852
192	0xbf98f6d9cd946b20	-0.024379161045639752
193	0xbfbc4b8a2888672d	-0.11052764405795008
194	0x3f96402d73b49667	0.021729192912195574
195	0xbfb23fc8c99538dc	-0.07128577157456867
196	0xbfa98ed2432eb57e	-0.04991776533220625
197	0x3f81c99b0ae27e86	0.008685313481975553
198	0x3fb5c3a39017737b	0.08501646297322722
199	0xbfb07b6cabbe6a88	-0.06438330834354578
200	0xbfb109ab67b16c0e	-0.06655379563873984
201	0xbfb7a961a48f6a82	-0.0924283053167674
202	0x3f7da5035e6f81f3	0.007237446937296432
203	0xbfb77f0400000000	-0.0917818546295166
204	0xbfa648504bdc1ea9	-0.04352045942328903
205	0x3fa3e5da26ae38f0	0.03886300775694618
206	0xbfc59d22e6b618fa	-0.16885792031479935
207	0xbfa88c9632c1baf9	-0.047947591491597615
208	0xbfaf7ba89cdc4011	-0.06149031557845331
209	0xbfa0b6ccdfd352d0	-0.03264465553517015
210	0xbfbb3b8ea5c3676d	-0.10637752100902072
211	0x3fc0f41bbf621ef8	0.13244959683310475
212	0xbfacdaa40851a407	-0.05635559655713256
213	0xbf76e8e4cb5a5fd6	-0.005593198516770278
214	0xbfb522c380000000	-0.08256170153617859
215	0xbf98da0200000000	-0.024269133806228638
216	0xbf9d490e75f49f2d	-0.02859900088256422
217	0x3fc301643610bf51	0.1484799636832528
218	0x3fc7f57079bcda5c	0.187177714769592
219	0xbf9b9cd738831c7a	-0.026965487312534432
220	0x3fb19ec348b0ccb1	0.06882877850221082
221	0xbfc7ed1c61a8f78c	-0.18692354935222644
222	0xbf68b1e21c6499b0	-0.003014508841391726
223	0x3fb20decd72694cf	0.07052498104765735
224	0xbfaa21eda0398b6d	-0.051040101822556895
225	0xbfbf6f1a50500c25	-0.12278904400595587
226	0x3fa86f6412395674	0.04772484514675748
227	0x3fa5c7a18cfbbb36	0.04253868909824236
228	0x3fb9ff6e75b45ea1	0.10155382512709334
229	0xbfae3c8d2e9c63c5	-0.05905572122555428
230	0xbfa029d45e266ffc	-0.03156913422864702
231	0x3fa1e366a4048afa	0.034938056489655936
232	0x3fba1d629a19e3dd	0.10201088201746651
233	0xbf8b05ce5ac18986	-0.013194667954114402
234	0xbfc2f3bac7ffe022	-0.14806303754426248
235	0xbfc226ffffb49f65	-0.14181518540976437
236	0x3fa3080568d9b316	0.037170571374053704
237	0x3fc6fd30ea1abb9d	0.17960177832489146
238	0x3fd00c483520979c	0.2507496374913616
239	0xbfd088adf7fa6cc5	-0.2583422586119009
240	0xbfb64aeb85e9e116	-0.08708068866133475
241	0x3fbec5b5e8e9620b	0.12020432411498676
242	0x3f4474fec2d9f465	0.0006242984724874721
243	0xbf9a0530433aad4b	-0.0254104176553203
244	0x3fbfad4e8c349bea	0.12373820231424273
245	0x3fb5c313745bbc7e	0.08500787344722657
246	0x3fb2656d2352fe3d	0.07186014282614735
247	0x3f86468afb0bca18	0.010876737390820998
248	0x3fc088fe9347ba2c	0.1291807383672262
249	0x3fb066d8489d5a03	0.06406928799456328
250	0x3fbee4358f98515f	0.12066969638573742
251	0x3fbf20e7d0139e72	0.1215958483695603
252	0x3fb3363d7a849916	0.075046389018642
253	0xbf7ec5a42a745bc7	-0.007512704155735634
254	0x3fb0a5f11ae06b76	0.0650320711724087
255	0xbf7e27d00f13c2ac	-0.007362187128123903

encoder.0.bias f8 [128]
0	0x3fb65f6e2277359b	0.08739364949652499
1	0x3fb368d3f8f869a5	0.07581829861047724
2	0x3f92035691241e2b	0.017590859039982625
3	0x3fa0aeee79c68b5e	0.032584621777707254
4	0x3fb90d8b90b86b38	0.09786293299877691
5	0x3f989a41d094a5bc	0.024025944095375826
6	0x3fb2ef806efd0e56	0.07396700582199264
7	0x3fb47f0953c4f586	0.08006342215681714
8	0x3fb4cfb6f951507b	0.08129447543007189
9	0x3fc0555165fdc6e2	0.1276036975864861
10	0x3f6ceca495a20234	0.0035308088818626574
11	0xbf9855bc087a922e	-0.023764551179413278
12	0x3f71403194cb25a1	0.004211610485705648
13	0x3fb633ac2faa89d7	0.08672596133923292
14	0xbf8a22d44a0d18d4	-0.012761744031774581
15	0x3fbc316adeab745b	0.11012905060074855
16	0x3f9452a22fe44792	0.01984647195155948
17	0x3fc108fff677c848	0.13308715376439495
18	0x3f97f2149135ec32	0.023384400713876548
19	0x3fa2ce2ca77e2881	0.03672923607435142
20	0xbf93fcf0ed022e04	-0.019519581285335277
21	0x3fb7036e69320f92	0.08989610737086043
22	0x3fc308d16070ab0b	0.14870660027494184
23	0x3f9360089d84152a	0.018921026815424437
24	0x3fc7ed8d0f0c1ae5	0.18693698153238994
25	0x3fb0044267b1ec04	0.06256499320618053
26	0x3fb7541d1ed0f657	0.09112722399091787
27	0xbf9d28bef50f0294	-0.02847574587554165
28	0x3f6cf228f52240ed	0.0035334396316742873
29	0x3fb59e22ada9bca9	0.08444420566387358
30	0xbfa1df698125b31a	-0.034907624259039774
31	0x3fbf449c71b86a5e	0.12214067245842261
32	0x3fbd6059c009ffb4	0.11475144327596248
33	0x3fa51ea4db4207df	0.04124941994179187
34	0x3fbb1aeccbcbf60d	0.10587959266191423
35	0x3fb9be2c59fca7b6	0.1005580634779609
36	0xbfa62a22d188ff95	-0.04329022224237559
37	0x3faffd894439bb3d	0.06248120267706845
38	0x3fa95c640c056f8e	0.04953301092856953
39	0xbf7a14dda4d9ecc5	-0.006367555424385778
40	0x3fa65e6cfe114b18	0.04368916131411121
41	0x3fac1cfd71e81982	0.05490867629491715
42	0xbfa19d33da48effe	-0.0344024852715563
43	0x3fb87baf5b55b248	0.0956372831330522
44	0x3fb9d5743259c401	0.10091329793228
45	0xbfb4542e7b0eac47	-0.07940950874642382
46	0xbfa29c89b8fe5816	-0.03635054000112363
47	0x3fc436feccf3e073	0.15792832381680774
48	0xbf9b9ff74e6f0612	-0.026977409517490676
49	0x3fb957b01689d957	0.09899426031356505
50	0xbfa41974fc13cfa3	-0.03925672127834836
51	0x3fc164de87029c7b	0.1358907851438039
52	0xbfa205ebe0000000	-0.03520142659544945
53	0x3fb4450ad46b42d6	0.07917850194941009
54	0xbfba951718a643d3	-0.10383743621629486
55	0x3fc1a022c2e4eba0	0.13769945637053826
56	0x3fc1b26b6f2a8e43	0.1382574360660432
57	0x3f4ecc8fd03defd8	0.0009399130071723284
58	0x3f91e9dec8806c2e	0.017493706691407755
59	0x3fa34a79a0d4e7d0	0.037677574999591124
60	0x3f8336489c511568	0.009380881567390545
61	0x3fa250916039b054	0.03577093410135093
62	0x3fb5800b85340b18	0.08398506166490127
63	0xbf99733aaa902e32	-0.024853626880981312
64	0x3f9d8b801c8271c6	0.028852464428028822
65	0x3fbbcccd9ab548be	0.10859379794172505
66	0x3fb746be9203faa5	0.09092322411377525
67	0x3fc2bf5be7a18713	0.14646481332879854
68	0x3fb2bcb802c150ca	0.07319212023986946
69	0x3fb588abb45831dd	0.08411667969648513
70	0x3fc5fe354d5a515d	0.17182031895630248
71	0x3fb1244571b0e9c2	0.06695970559750378
72	0xbf7072db7c31bd36	-0.004015786517910505
73	0x3fc31f1916335145	0.149386535492008
74	0xbf96d4e136ff6aa6	-0.022296446782869815
75	0x3fc3b34a47601d45	0.1539090012085841
76	0x3fb9fda883cf33c2	0.10152676790239837
77	0x3fb9cd8843e7f0e7	0.10079242380010421
78	0x3fbd1c407284b01a	0.11371233745438794
79	0x3fb420e704396936	0.07862705090648067
80	0x3fbad91df989ebf9	0.10487544386153037
81	0x3fb822d639f98e04	0.09428156772042234
82	0x3fb4b4eb943f75f8	0.08088562363942475
83	0x3fc4cc698f8e49af	0.16248816976128697
84	0x3facaa047f6dff48	0.055984631114368855
85	0x3fae80699e6f586b	0.059573460188105574
86	0xbfac456f02a9fa6f	-0.05521723659056909
87	0xbf960472d2845e02	-0.02150134477514421
88	0xbfafe7becd936104	-0.06231495151013358
89	0xbfa9c43341c6bc78	-0.050325013903937454
90	0x3fa868e0e4e621c1	0.04767515939881007
91	0x3fa31ad0a973d374	0.03731395786773009
92	0x3fc0c2799911fb55	0.13093490575917124
93	0x3fb067fb50118a6e	0.06408663468168083
94	0x3fb8a88728d03ed7	0.09632153269216857
95	0x3fbaf3723a7f7ab1	0.10527719429181094
96	0x3fa819819af93caa	0.047069597404168675
97	0xbfa5d52580000000	-0.04264180362224579
98	0xbfa1746981a034e5	-0.03409127909990576
99	0xbf88480c8c729d04	-0.011856172596095955
100	0x3fc04dccec13d601	0.12737428214283855
101	0x3fbd0917388daa6b	0.11341996317575258
102	0x3fbf9c06ccfa1119	0.12347452644650438
103	0x3fa8d6dce65c5825	0.048514273758130146
104	0x3fc3701577e1de83	0.1518580279696274
105	0xbf98d1f3a5266d38	-0.024238402323686986
106	0x3fae594e19827653	0.05927509366413788
107	0x3fc3ae3ac3148bd4	0.1537545635738683
108	0x3fb2e5520175ef18	0.07381165061627504
109	0x3fa0fd6e65925b30	0.033183526896371496
110	0x3fb73169dd439497	0.0905977406688002
111	0x3f9d8eb2c3d07592	0.02886466331630328
112	0x3fb6fd0611c3633e	0.08979833539650614
113	0x3fa5fb58614197fd	0.04293323695382865
114	0x3fbfe71993a98d5f	0.12462005476986836
115	0xbf91f0019678eef4	-0.017517113503557405
116	0x3fb1b2b4e0339ca4	0.06913309549018948
117	0x3fbcedb26fcd44af	0.11300196866547439
118	0x3fb6c3efee7006d8	0.08892726489286973
119	0x3f9723c2a94cb410	0.022597352584103503
120	0x3fc3c530d64d9bce	0.15445528472920816
121	0x3f5d5d8c7d172e2e	0.0017923232993436555
122	0x3fc58df464a45e68	0.16839461244738918
123	0xbfa7d5c0922b5b38	-0.04655267509740785
124	0x3fc0b5ae7e4558f5	0.13054448285647138
125	0xbfb238b7a8ad110c	-0.07117793911044518
126	0xbf877efd6c511ca7	-0.011472682827060444
127	0x3fbc4a2d41fdee74	0.11050684796458105

encoder.2.weight f8 [32, 128]
0	0x3f8696ce3c7bafa9	0.011029826374816159
1	0xbfa9be09af004aec	-0.0502779985546534
2	0xbf67a922c5d42120	-0.002888267436564132
3	0x3fc33722b71a3fd9	0.1501201051764827
4	0xbfbb9b0c54cb0ccd	-0.10783459730287177
5	0x3fc241a04548aa57	0.14262774832725952
6	0xbfb58b3485c9b682	-0.08415535227114826
7	0xbfb02a0f0d38352d	-0.06314176628821562
8	0xbf68a703330f0465	-0.0030093252648560214
9	0x3fd2c24393d74f94	0.2931069320450146
10	0x3fd106f09e501e40	0.26604857883691935
11	0x3fc37330e1dbfa83	0.15195284870420175
12	0xbfc58f2926827463	-0.1684314191851711
13	0x3fc159341d791d72	0.1355347770606659
14	0xbfc3393f191b47bd	-0.15018452382952133
15	0xbfb280dfb0971088	-0.07227895795137063
16	0x3fc24ad6a166f3b7	0.14290888672794974
17	0x3fc62c631dc08f6a	0.17322958901160784
18	0xbfae30a8b683fb3f	-0.05896498897526791
19	0x3fdded123ac1e7d1	0.4675946782878074
20	0xbfc05b46b7c9c2ce	-0.12778552984266017
21	0x3f519cf731b2e20f	0.0010750211720688162
22	0xbfa862ea6e87c561	-0.04762966727492813
23	0x3fbb5f1accac08ca	0.10691993233561728
24	0x3fb39f3df37d53d2	0.07664859003609983
25	0x3fd477813a08786b	0.3197939936379785
26	0x3fb29e29c728d1ca	0.07272587883273399
27	0x3fc7badeb2700613	0.1853903170850094
28	0xbfb195d30882a186	-0.06869238813181341
29	0xbf80251c5374f514	-0.007883282944585214
30	0xbf9c84b773133ec5	-0.02785002364981783
31	0x3f9d1635e5c2c6fc	0.0284050389752286
32	0x3f8a99236cbe9942	0.012987400776023453
33	0x3fbe7ecd41ad8299	0.11912234166585235
34	0x3fb2c6d31d3fca82	0.07334632362452889
35	0x3fce680b99daf323	0.2375502110716293
36	0x3f977ea393e5b730	0.022944026853500776
37	0xbf9a4d7ff00aaacc	-0.025686263109188798
38	0xbfaad002955aa82c	-0.05236824105425372
39	0x3fa5e11e407c9466	0.04273314034643576
40	0xbfc2645cc767d8e6	-0.1436878179226319
41	0x3f98462f5f0e9b5f	0.023705234696218876
42	0x3fd8e75caf65f366	0.38912121895537266
43	0x3fbdb4800fc9bbc7	0.11603546510171646
44	0x3fb3f7b9aa65c9f1	0.07799873743150677
45	0x3fd3359a43fa21f1	0.3001466430510212
46	0xbfbb899853cd2f03	-0.10756828351912522
47	0x3fb427a08e2a51fb	0.07872966261704299
48	0x3fc26e5779dc45d8	0.14399236154763062
49	0x3fbd7d45d7261f19	0.11519276144656167
50	0xbfb69ac72dcd4da6	-0.08829922550403654
51	0x3f7aff33703cd5b5	0.0065910348237613785
52	0x3fb0027a60000000	0.06253781169652939
53	0x3fa36692fdcdcaf4	0.03789195392791625
54	0x3f81f9603cc36238	0.008776428083749996
55	0x3fc61e24dcc3d768	0.17279492167989052
56	0x3fb98fca884a0343	0.09985032870646386
57	0x3f9625e3fc055bef	0.0216289160319682
58	0x3fae8a0b49062ae7	0.05964694277198195
59	0xbf9a640519bf203f	-0.025772170731017004
60	0x3fbd16b229823717	0.11362756265063144
61	0x3fb4e0ea6928f447	0.08155694072134266
62	0x3fa2ab1d294a5621	0.03646174553902549
63	0x3f9c46fe92bda5fb	0.027614572244976526
64	0xbfaa5b8894a81b55	-0.05147959532410221
65	0x3faed2bd22eea9d3	0.060201559557146254
66	0xbfafe06dc3e62380	-0.062259130633782966
67	0x3fb8005f956a5196	0.09375569722971586
68	0x3fc23ac7903b2c47	0.14241880934273096
69	0x3fb2e351f512fbfb	0.07378113015418812
70	0xbf9ad1f86fcc5075	-0.02619159872399775
71	0xbfc465f2590ca70b	-0.15936116550556564
72	0x3fa8ccd922a8883f	0.04843786762309365
73	0x3fab00b3a36205e0	0.05273972863598053
74	0xbf9e848dac341dad	-0.029802526126358298
75	0x3fa29b6843a85ff3	0.03634191347026663
76	0x3fb284d40fc66368	0.07233930001383515
77	0xbfbd286ee8d635b8	-0.11389821228495733
78	0x3fa31b97d6462bc0	0.03731989374781319
79	0x3fa126369d18860a	0.033494669605954
80	0x3fa4bc08b3c76186	0.04049708551946467
81	0x3fb26e71a4ddbde6	0.07199774050763316
82	0xbfb58e6e135d51d6	-0.08420455906645627
83	0x3faefedefc282ff7	0.060538261681443765
84	0x3fb929025ad73a63	0.09828200071135877
85	0x3f7744caa2911a4c	0.005680839102814316
86	0x3fb358a4381941f3	0.07557131166073087
87	0xbfbf803e1154c1b7	-0.12305057452318278
88	0xbfc6af6fda53212f	-0.17722891006838767
89	0xbfc23b47c1c4f632	-0.1424340911998328
90	0x3fb6648737d479ec	0.08747143853222611
91	0xbf927debe05275eb	-0.018058476988349097
92	0x3fafe0aa74c4edff	0.06226093936353649
93	0xbf9a74f1abdacc8f	-0.02583673106591938
94	0xbfc03acd21ecf5ac	-0.1267944732334575
95	0x3fa589857db14637	0.04206483039218905
96	0xbfc57c70c944b0a3	-0.1678601248507948
97	0xbfa2c8f500000000	-0.036689430475234985
98	0x3fbaa743cfed39f8	0.10411475969633688
99	0xbfbdee6eb1822652	-0.11691943963719467
100	0x3f94be9ce710aebe	0.020258380511377842
101	0x3fb6e379104454af	0.08940846106664212
102	0xbe696cad28ad1580	-4.735685362479251e-08
103	0x3fb440d00c645a01	0.07911396315135023
104	0xbfbaed83c86ad3d1	-0.10518668787956577
105	0xbfc7cab0fd00fcbb	-0.18587314943031238
106	0xbf8c2ff26b3aa8cf	-0.013763326547025305
107	0x3fc270a3a5087b23	0.14406247671373604
108	0x3fa2892393b468c5	0.03620253732715776
109	0xbf80de7df3f265e2	-0.008236869818847251
110	0x3fc039dae5f26275	0.12676559665557688
111	0x3fac0985e3ebec93	0.054760154793222736
112	0x3fc499b193492c22	0.16094035808268453
113	0xbfc3954395ef210e	-0.15299267598153005
114	0x3fc067568b3f9208	0.12815362738832925
115	0x3fb21aa51b7aa522	0.07071906967998534
116	0x3fc22b990da527eb	0.1419555012346899
117	0xbfbb6e429ed86375	-0.10715118768747607
118	0x3fb80ff9b1f876d8	0.0939937648294874
119	0xbf8515df2c6a1176	-0.010295623343389276
120	0x3fb31ebdb10b1071	0.07468782017082433
121	0xbfb29d027d8ee182	-0.07270827832588192
122	0xbf780422b74b7a96	-0.0058633190244267355
123	0x3fc1d888162877cd	0.13942051965653804
124	0x3fc2312021aa82c2	0.1421241917023704
125	0xbfacf2a9329ba105	-0.05653885596058398
126	0xbf916cfe4953b5b8	-0.017017338967823398
127	0x3fb8d9c6196427f9	0.0970729648580856
128	0x3fb4a1cdabd07159	0.08059392399485911
129	0xbfc1da628bc4bb91	-0.13947707962639957
130	0x3fbd101da7afec8f	0.11352715820241797
131	0x3f99598e7736425b	0.024755693460578914
132	0x3fa2abc73f35f828	0.0364668144857066
133	0xbfa0b163a9a1d613	-0.032603373009731616
134	0xbf9be418ab171009	-0.027237306063185005
135	0x3fb2e6673e7bfd20	0.0738281753110539
136	0x3fa1b22f2a7c5c7b	0.03456256288171119
137	0x3fb2f6f23960cbda	0.07408059979279305
138	0x3fd0dc13375a56ee	0.26343231587939797
139	0x3f9d7f1fde20e093	0.028805253918307527
140	0xbfc3c9f3c31cf3f6	-0.15460059191710201
141	0x3fb2f26f5482a4ea	0.07401176274528934
142	0xbfc9a47e9962c42c	-0.2003324746088152
143	0xbfb66e2f03c940ef	-0.0876187690967105
144	0x3fb5ae6d7daa3dd6	0.08469280546181976
145	0x3fbc236fc770bd1a	0.10991572016859089
146	0x3f7d4d9360cef011	0.007154060073784067
147	0x3fe012153f0d5631	0.5022073966490038
148	0xbfc3d2878b2d2406	-0.15486234946936878
149	0x3fb5f77009c99149	0.08580684889745273
150	0xbfc0f05b7de98433	-0.1323351254277739
151	0xbfb2267804cebbe2	-0.07089948766109402
152	0x3fc79a88cc50b2a4	0.18440351463632
153	0x3fcac487a7c45951	0.2091226166891809
154	0x3fb97d4783ab495a	0.09956786121919006
155	0x3fc437db4d16ffbe	0.15795460952904067
156	0x3fa368a139eda933	0.03790763694890344
157	0xbfc4fbf4932fc121	-0.1639390677150994
158	0x3fd007f6f6221944	0.25048612629361267
159	0x3fc2185ce819a7a1	0.14136849720972314
160	0x3fc1182295f4299e	0.13354904481850566
161	0x3fc8ef480d413e2c	0.19480229041299546
162	0x3fbcb9a71f2d936d	0.11220783721144097
163	0x3fc8b9e249ee1d69	0.1931727276789659
164	0x3fd2d7f39ef8c79a	0.2944306423624937
165	0x3fc21588a448c929	0.1412821581048516
166	0xbfb3d44b34fd97d9	-0.07745809596744326
167	0xbf90429efb7d32b3	-0.015879139041589507
168	0xbf99774e21189e22	-0.024869175691632724
169	0x3fc148ad9be03d62	0.1350304614174816
170	0x3fd54ff0d5d36c3e	0.3330041969435945
171	0x3fc1ef5a857608a0	0.14011699215558782
172	0x3faa45050da34ced	0.05130782882192784
173	0x3fd46c11560f4d22	0.31909593014025195
174	0xbfc8cee64103cf9f	-0.19381406950526256
175	0x3f6eb6f875eb3ba5	0.0037493565317627425
176	0x3fc7eb3eb124ff59	0.18686660432467297
177	0x3fa1530716983e81	0.03383657599272017
178	0xbfd07500324eacff	-0.2571411601335995
179	0x3fc461878ab2456d	0.15922636291774542
180	0xbfb1073f80000000	-0.06651684641838074
181	0x3fc157fb83be3560	0.13549751217616812
182	0x3f63ee544d4916ac	0.0024329802056709173
183	0x3fc1e3abfd364857	0.1397604929339333
184	0x3fb11de8d2e54343	0.0668626322633488
185	0x3f948543e015a5fb	0.020039616157566425
186	0x3fabb7af2b39851d	0.05413577463765249
187	0x3fb12866b7f752b8	0.06702272406921395
188	0x3fc48b573a1c1848	0.1605023416270248
189	0x3fc09edb9d550b58	0.12984795744167843
190	0xbfc911394ebde1b6	-0.19583813042460257
191	0x3f8679fd05a42f83	0.010974861845646227
192	0xbf7c253843ad813e	-0.006871433050804674
193	0x3fc78375412dd13c	0.18369928057257734
194	0x3fc2b8654c61e8cd	0.14625231008159859
195	0x3fb1677f3f034bb1	0.06798548973465192
196	0x3fa2de49a94fb628	0.036852170865909806
197	0x3fb38236ffd3b169	0.07620567079329067
198	0x3fbf03de2080528e	0.12115276616561685
199	0xbfb89150484f8081	-0.0959673096217575
200	0x3fc2bf75b75c9096	0.1464678902931424
201	0x3fbea62c9bb547a2	0.11972311784236792
202	0xbf8d425e8d7b9998	-0.01428674573203352
203	0x3fc173cc456d093b	0.13634637250840762
204	0x3fc4fb0d7600f41b	0.16391151677990554
205	0xbfbf409e5c22928e	-0.12207975148573721
206	0x3fc140d9bba47b2c	0.1347915807936827
207	0xbfbe4736e06d08b9	-0.11827414492748546
208	0x3fb27d1538e576ea	0.07222111357756558
209	0x3fc04eac968b888f	0.12740094519455566
210	0xbf78602d54a13c28	-0.005951096603964458
211	0x3fb63bb6d4afaba1	0.0868486661199044
212	0x3f94f545a991f33b	0.02046688888048041
213	0x3fafebb30a3608fc	0.06234511851927668
214	0x3fb5061696916735	0.0821241490934
215	0xbfb07418a6faade6	-0.06427148892060294
216	0xbfc96d7e45354db7	-0.19865396861369586
217	0xbfb72c6ddc6f1d6d	-0.09052168494883057
218	0x3fb8e0f79a6a2547	0.09718272704971752
219	0xbfab1b3e6fd37b1b	-0.05294222941460288
220	0x3f9f4d8505b49c25	0.030569151375996157
221	0x3f9de81e400b93c7	0.029205773028383477
222	0xbfa6d655876cb7e3	-0.04460398939259826
223	0x3fbf046dc8bd8f9e	0.12116132880106398
224	0xbfbdbd00a5f55366	-0.1161651997729912
225	0xbf9f624900000000	-0.0306483656167984
226	0x3fe495597209d48a	0.6432311274826514
227	0xbfd106da8e49407f	-0.26604331870203873
228	0x3fc072d40221c842	0.1285042772684069
229	0x3fc49ca9ed883b46	0.1610309991669629
230	0xbfbd9d1501a76635	-0.11567813196543215
231	0x3fc04547948b10da	0.1271142459210129
232	0x3fb6ee91f8d1384a	0.08957779240265143
233	0xbfc4e5468bdc9dd6	-0.16324693516911165
234	0x3fb359061b9ff594	0.07557714628634066
235	0x3fbdfb20ea0cb88b	0.11711316789726049
236	0x3f920e1306b710fb	0.017631814274651863
237	0xbf85ad205077a218	-0.010584118323962818
238	0x3fb8e9e58d5a5e4a	0.09731898022652632
239	0x3fa0dd801145bf57	0.0329399128994498
240	0x3fb612a3ab1abcbd	0.08622191359858085
241	0xbf9d9b7056f0e6de	-0.028913264566859158
242	0x3f95b16be0c4c2ec	0.021184621423517777
243	0x3fc36230f160101a	0.15143405710125607
244	0x3fc2669cb408689e	0.1437564734522469
245	0x3f964db21b76d1b4	0.021780760694768822
246	0x3fa3d1850ceafc1c	0.03870788366975139
247	0x3fb9c198fc51d243	0.10061031494280663
248	0x3fc57503a5a2398c	0.16763349139769124
249	0xbfb6388c894c3133	-0.08680036880486312
250	0x3fb3c2e9c37a95e4	0.07719288847382405
251	0x3fcc829bc92c7c96	0.2227358562749699
252	0x3fb5e568eee2fad6	0.08553176719849928
253	0xbf7dcd320b92073b	-0.0072757677927500165
254	0x3fb5b76947cd7dff	0.08482988360400866
255	0x3fb7ef9a9f31fd9b	0.09349981676677148

encoder.2.bias f8 [32]
0	0x3fa974b7aa499a16	0.04971860841469693
1	0xbfa402b724471b31	-0.0390832168373464
2	0xbfac365be25390fe	-0.0551022256638891
3	0x3fa53b2d2d95e00b	0.041467105688696014
4	0x3f8cac559e2b9782	0.014000576867555518
5	0x3fc16444e93635e6	0.1358724726418778
6	0x3fc47652fbbf8c5a	0.1598609666099005
7	0x3f93776bb40534fa	0.019010241377420002
8	0x3f933bfb5d86ec2e	0.018783500274121838
9	0x3fbdc2dbf1575836	0.11625456468695536
10	0xbfbb14b9feb32689	-0.10578501194245339
11	0xbf32f203257f3b44	-0.00028908325975589657
12	0x3fb1db7a1ff2ef1c	0.06975520401004726
13	0x3fba70351d7a7ef7	0.10327465028467119
14	0x3fa66be267e01163	0.04379184263237581
15	0xbf85c4d1ce89f1dd	-0.010629309764447587
16	0x3fbc08cb2c668502	0.10950918039317872
17	0x3fb2f40116205aef	0.07403570928759583
18	0xbf9a7691e8a3264c	-0.025842933486990113
19	0xbf7414368a5ba5c6	-0.004902089165378104
20	0x3f83505b818dbbdc	0.00943061341396672
21	0x3fb39785c09fc6a0	0.07653079941499152
22	0xbfb68e7ffcdceb05	-0.08811187671100747
23	0xbfa70c877bc34886	-0.045017465455786485
24	0x3fc1250d0d8c0549	0.13394320641968196
25	0x3fb35d261a4b9c02	0.07564008848167705
26	0x3fc1e66858c1c621	0.1398439820655293
27	0xbf6df7d541822b80	-0.0036582150606298547
28	0x3fb2b400a826bb51	0.07305912118202441
29	0xbfb0272403323891	-0.06309723928481704
30	0x3fb8e23483105976	0.09720161628533738
31	0xbf73b3e6bb595dd3	-0.00481023912069341

encoder.4.weight f8 [12, 32]
0	0x3fbeeb3df7dad402	0.12077700902121083
1	0x3fd00b06bb369705	0.25067299158614303
2	0xbfa13d4c0687dda2	-0.03367078380318424
3	0x3f988812c3b37d7c	0.023956578440331708
4	0xbfe11f43708cb1fa	-0.5350663374170488
5	0x3f9df05a8edc0110	0.02923718926376845
6	0xbfc740acb3754446	-0.18166121256448003
7	0x3fa83991e7f80a5c	0.04731422382976255
8	0x3fd11b69feddcaa5	0.2672982205323627
9	0x3fc337785dd547e2	0.15013031560607631
10	0xbf74ceea67a4b81a	-0.0050801426353199956
11	0x3fbb41f6c0bae7c4	0.10647527890515024
12	0xbfc2b8f7814dcbe6	-0.14626973928133608
13	0x3fb48eb135df61a1	0.08030231061218852
14	0xbf8cba4ae83b396c	-0.014027199947488987
15	0xbfa6454b544782f1	-0.04349742320824202
16	0xbfc9e6a6cfd137af	-0.20235142848326634
17	0x3fd04ae1abb5c0fa	0.25457040566017464
18	0xbfbaddea99849dab	-0.10494867561339187
19	0x3fd38f271bd60a93	0.3056123515927222
20	0x3fd05c3b70e7795b	0.255629406221393
21	0x3fc1be616fc98c5f	0.13862245519985358
22	0xbf7496ac45a0b8d7	-0.005026505410610413
23	0xbfc5950733318885	-0.16861047744447802
24	0xbfc1bb187648f744	-0.13852220321308029
25	0x3fca660eb85f9260	0.20623954775432463
26	0xbfc20bc369e6dc7f	-0.14098398848520685
27	0x3fa89e97a0381811	0.048084963138578136
28	0x3fc47c8a843c9409	0.16005069214693915
29	0xbfb7a5621e4f1126	-0.0923672985073308
30	0x3fb975db508d91e8	0.09945460049272692
31	0xbfb8bb4bfe6bb5e1	-0.09660792313999124
32	0x3fb360f940000000	0.07569845020771027
33	0xbfc51df7c0000000	-0.1649770438671112
34	0xbfacefd040000000	-0.05651713162660599
35	0x3fb19a4e00000000	0.06876075267791748
36	0x3f9f88d700000000	0.030795440077781677
37	0xbfc37cc660000000	-0.15224532783031464
38	0x3faad89980000000	0.05243377387523651
39	0x3f83310200000000	0.009370818734169006
40	0xbf909a9e00000000	-0.016214817762374878
41	0xbfa141d380000000	-0.03370533883571625
42	0xbfb32c30e0000000	-0.0748930498957634
43	0xbfb2e9d780000000	-0.0738806426525116
44	0xbfbd9d78c0000000	-0.11568407714366913
45	0x3f915e8500000000	0.016962125897407532
46	0x3fa3c64600000000	0.03862208127975464
47	0xbfc125eb20000000	-0.13396967947483063
48	0xbf9a8c9f00000000	-0.025927051901817322
49	0xbfbc8f5d80000000	-0.111562579870224
50	0xbfab6ce080000000	-0.05356504023075104
51	0xbfc2d5ae20000000	-0.14714600145816803
52	0xbfa3db4700000000	-0.038782328367233276
53	0xbf8b9f9a00000000	-0.013488009572029114
54	0xbfaf8c4440000000	-0.06161702424287796
55	0xbfc665df80000000	-0.1749839186668396
56	0x3fbae4cd40000000	0.10505373775959015
57	0xbfbd40b7c0000000	-0.11426876485347748
58	0xbfc434f060000000	-0.15786556899547577
59	0x3fa934f900000000	0.049232274293899536
60	0x3faa3ed400000000	0.05126059055328369
61	0xbfb1b34ea0000000	-0.06914225965738297
62	0x3f8fa0fe00000000	0.015443786978721619
63	0x3fc0393be0000000	0.12674663960933685
64	0xbfc5999882ff73b2	-0.16874987026576843
65	0xbfbb74d7e6b3206a	-0.10725163824383946
66	0xbfb1bfa820000000	-0.06933069974184036
67	0x3fba4d69cb53716f	0.10274373258602564
68	0xbfc6ed6db40802d0	-0.17912074366178965
69	0x3fa347c8965ec61f	0.03765703998159275
70	0xbfc3d70e1c647b32	-0.15500046144821905
71	0xbfc555266170ca28	-0.16666106946793602
72	0x3f8808aac4b9071d	0.01173528111314997
73	0xbfbb89165c9fc172	-0.10756053696946369
74	0x3fbefbf5d5cfaa9f	0.12103210897445614
75	0x3fbd491e6311ea25	0.11439695280743274
76	0x3fc1d406ef805679	0.13928305334473004
77	0xbfb0a92f5bf3022a	-0.06508155817847042
78	0x3fc5e37e6dbf7545	0.17100506171019894
79	0x3fb8382dcafcb29c	0.09460722165813212
80	0x3f9df6c056dfe9fe	0.029261594107063964
81	0x3f9e53f499046369	0.029617139663148082
82	0x3fbab279be95059a	0.10428582098849973
83	0xbfa9e73662b1ec91	-0.05059213595173973
84	0x3f8b1e0d75b23b3d	0.013240914491942863
85	0xbfa9969a0bf63506	-0.04997712512986578
86	0x3f915d4e51597997	0.01695749637144103
87	0x3fb5fc5dc09f637c	0.08588205292416079
88	0xbfab9c36726a5f60	-0.05392618319200326
89	0xbfc512995d176655	-0.16463009877661486
90	0xbfb64f8942b5489a	-0.08715112570397068
91	0xbf9590c5abe0c17b	-0.021060074439618753
92	0xbfc6573b09a43343	-0.17453706713458858
93	0xbfc790c786beddfb	-0.18410581664441836
94	0xbf94d798d84cc8b0	-0.020353687478924243
95	0x3f77bca027560a8a	0.005795121765347697
96	0x3fb3a4217b5b836e	0.07672318708092771
97	0x3fac1c8adc8b36a6	0.05490526144204226
98	0x3fc2a6922b74aaa7	0.1457083427606751
99	0xbf757634f5ae0bd7	-0.005239683984544072
100	0x3fbb087be238ae0b	0.10559820435508287
101	0x3f791257e1aee040	0.0061210091470727535
102	0xbfb76c6bc918bf06	-0.09149812373720687
103	0x3f8507190f3f9797	0.010267444398731658
104	0x3fbee2f4e5301e77	0.12065058322343157
105	0x3fc464c70f69556a	0.1593254876376407
106	0xbfa3b31477186711	-0.03847564653206182
107	0x3fc97389c87984ca	0.19883844651034216
108	0x3fba995f7b5d1420	0.10390278589063984
109	0x3fb4b8d3266654bf	0.0809452027081816
110	0x3fb86f3fc0000000	0.09544752538204193
111	0x3fbbb986c0000000	0.10829965770244598
112	0xbfbdcd0d358fc269	-0.11641008908896712
113	0x3fc8906438320874	0.1919064783469967
114	0x3fc14ac21ed4cb4a	0.13509394174033168
115	0x3fd0b5dd49c0c986	0.26110012247513514
116	0x3fcd412847d87c24	0.2285509444054422
117	0xbfbdf0e72ffa053c	-0.11695713921837564
118	0x3fbe4ed7eca3f54e	0.11839055564265275
119	0x3fac4880023f05ee	0.055240631365005885
120	0x3fcc52c6f11589d3	0.22127615710912937
121	0x3f94e6671e0f081a	0.020410166940344344
122	0xbfc050eda2982b3c	-0.12746973456554567
123	0x3f8686e8abd973ac	0.010999505752971782
124	0x3fcd80a3e8b63e32	0.23048828947911343
125	0x3fc0e1f15bde2f6d	0.1318952272962365
126	0xbf8ad3ebc7fb5df5	-0.013099519768203097
127	0xbfc5ffa9597a2b38	-0.17186467045788745
128	0x3fcc615922e4e509	0.22172083095373576
129	0x3fbfb6d6a711f77b	0.12388364390241506
130	0x3fab5f6d069b3e7e	0.05346241670269779
131	0x3fd057cb04a00757	0.25535846187277883
132	0x3fcf8144b2e5aa08	0.2461324571152803
133	0x3fc6faee803408fe	0.1795328260414592
134	0x3fca7812555aa26b	0.20678929488828443
135	0x3f9f5c2981a7fda1	0.030625008143031377
136	0x3f9f512353cb9c09	0.03058295439668871
137	0xbfb57deeae3b9e63	-0.08395282510502393
138	0x3fbfee971de13c39	0.12473434905517501
139	0xbfc2d7e543e0745e	-0.14721360983176884
140	0xbfb161e0dfcfd4e8	-0.06789975608974752
141	0xbfb8a5453745dccc	-0.09627182578502697
142	0x3fc4edbd8e66f437	0.16350526288252507
143	0x3fbdcaa4c292f0d9	0.11637334585515492
144	0x3fadafa384dfeef0	0.05798064229017352
145	0x3fc62bb96b91a4a0	0.17320935966862283
146	0x3fa7c797dc995230	0.04644465034349243
147	0x3f9f82b9efb8568f	0.030772118812896706
148	0x3fd0644c89818706	0.2561217634994225
149	0x3fd02b24cd8be3ec	0.25263328621764347
150	0x3fb6260217a0deaa	0.08651745869507957
151	0xbf7bea7b8fe6b65f	-0.006815416969784132
152	0xbfaf9f33e14ce37c	-0.061761494877322826
153	0x3fcde0c44a36d081	0.23342183707939415
154	0xbf8fd36166f773b0	-0.01553989501456407
155	0x3fc177b0e09dd33f	0.13646517722704662
156	0x3faa6570577df4c2	0.05155516689317487
157	0x3fb8b4482479ad0f	0.09650088205824069
158	0xbfc1c72c956aa731	-0.1388908128331479
159	0xbfc369cd7fe3f402	-0.15166634316111077
160	0xbfabff6e6d24fdc2	-0.054683161567023145
161	0xbfc88a9bb379605d	-0.19172998679528322
162	0xbfbb840f40000000	-0.10748381912708282
163	0x3fba92d83bbfa1f9	0.10380317171769339
164	0x3faa335af8942cc1	0.05117306026849056
165	0xbfc10dbc6b3fd4a7	-0.1332316898039256
166	0x3f8783795d01cf66	0.011481235648012688
167	0x3fb5c10ae3f25f6e	0.08497684540850312
168	0x3fb4986347405d49	0.08045025338684754
169	0x3f907219e5c9f07c	0.016060261392781147
170	0x3fc0f6c920000000	0.1325313001871109
171	0xbfb3c1c720aba099	-0.07717556522004755
172	0x3fb91ad8b3fe5463	0.09806589502689315
173	0x3fa2b64d7d9dc015	0.03654710920716312
174	0xbfbe0ad3ba300dba	-0.11735270782087684
175	0xbf7c06ea52c75b95	-0.006842532468417502
176	0x3fc26c875ea14b9a	0.14393703575714484
177	0x3fc0b2454f598eb0	0.1304403912973746
178	0xbf9f3d54c139442c	-0.030507396977842813
179	0xbfce318edd5c565d	-0.23588739212634638
180	0x3fb60b62c6a3f7d9	0.0861112341844711
181	0xbf827a5edeaa6020	-0.009022465868199048
182	0xbfc5e67f0dcb77b1	-0.171096688972225
183	0x3fb5f1d0de384d7d	0.08572106766978567
184	0xbfccff882474895b	-0.226548211861039
185	0x3fc10af4f0b63dc4	0.1331468749381043
186	0xbfc939292364a57b	-0.1970569060152164
187	0xbfa834ce2a2c6f04	-0.04727787270368647
188	0xbfc7b4df6cd22870	-0.18520729840776395
189	0xbfb81c53fbf70a64	-0.09418225194444002
190	0xbfb08b2934e77d11	-0.06462342778785436
191	0x3fabe2a8922293ef	0.05446364196658481
192	0x3faab46938447780	0.052157676809868825
193	0x3f71e2c98ea1e388	0.004366671879432078
194	0x3fbb44c46703608f	0.1065180541512538
195	0xbfbbfd5345b552e0	-0.10933418704855624
196	0x3fc2081175eb408c	0.14087122209321412
197	0x3fca14394dd09045	0.2037421827272984
198	0x3faebb2d118ae555	0.06002178992407418
199	0x3fc3222ac1e894c6	0.14948019474210222
200	0xbfafada88bc9c6c8	-0.06187178331755444
201	0xbfb808ab9098377d	-0.0938822963728096
202	0xbfc1c86093a9eb6e	-0.13892752847808815
203	0xbfb17388e999ec57	-0.06816917136340926
204	0x3f6be30612a9a3fa	0.0034041517840717158
205	0x3fc8d0d42ecc485c	0.19387295041139196
206	0x3f8f0deacc935e14	0.0151632636720214
207	0xbfc4132c65fdc585	-0.15683512668651303
208	0xbfb93545a0ca3454	-0.09846911597760882
209	0x3fc7459478b3c116	0.18181091207180405
210	0x3fc75f5b6795cb86	0.18259756620281226
211	0x3f7f7303497b4215	0.0076780441665538395
212	0xbf74a2a4ed435e68	-0.005037922139500141
213	0xbfb8626509a8aa9f	-0.09525138364612439
214	0xbf80329bfba06259	-0.007909029594928162
215	0xbfbdce8741258dd5	-0.11643262234206671
216	0x3fbc7d2102c3dc2a	0.11128431622988502
217	0x3fcbde5021ed43b5	0.21772195488531812
218	0x3fd207ce4640b7c0	0.28172642574906703
219	0xbfc5ce3ad6e1eb17	-0.17035613529500246
220	0x3fc75a78ed1618ed	0.18244849754791606
221	0x3fad7abe18692d56	0.05757707641586289
222	0x3fc75ec9609e5608	0.1825801584024449
223	0x3fba1428d583a6c7	0.10187010967970443
224	0x3faeed2f7badeb6b	0.060403331611232534
225	0xbfdbfaa53f9ccb1c	-0.437173187371785
226	0x3fb077bc00000000	0.06432700157165527
227	0xbfd30a4d2cf2a901	-0.29750375165407666
228	0xbfa30fa539a7c8f8	-0.037228740013135864
229	0xbf853eeaee715c29	-0.010373912240693244
230	0xbfbf3efb977e6cf7	-0.12205479096012427
231	0x3fc32475a0000000	0.1495501548051834
232	0xbfd87b94fb069576	-0.3825428439543751
233	0x3f95e0436f34b689	0.021363309538335904
234	0xbfb9afd060000000	-0.10033895820379257
235	0xbf567ca62052075d	-0.0013724920584370006
236	0xbfa1e8bb00000000	-0.0349787175655365
237	0xbfa6787b6af59bb4	-0.043887955481117485
238	0xbfbe071dc0000000	-0.11729608476161957
239	0xbfb3c46780000000	-0.07721564173698425
240	0x3fc65cc432c368f1	0.1747060058467649
241	0x3fb14981f3479147	0.06752788724367519
242	0xbf73a04800000000	-0.004791527986526489
243	0xbfd32796e8ca408a	-0.2992913506832414
244	0xbfbccf607fd43357	-0.11253932114432295
245	0xbfc02e47a0000000	-0.12641234695911407
246	0x3fb259d13ead99fa	0.07168300419071008
247	0xbfc2d76c60000000	-0.14719919860363007
248	0x3fc150a29c14557d	0.13527329083505527
249	0xbfa4832a8bc11eec	-0.040063218650684934
250	0xbf9f72e7d0c030be	-0.030711767307409536
251	0xbfb94b827be5ad96	-0.09880843663056846
252	0xbfbb7fc92eb69885	-0.10741860762081686
253	0xbfba362300000000	-0.10238856077194214
254	0x3fac6f01550570c4	0.05553440249306754
255	0xbfaf956840000000	-0.06168676167726517

encoder.4.bias f8 [12]
0	0x3fbe2e0df92706de	0.11789023716758204
1	0xbfb6e09fc0000000	-0.08936499059200287
2	0x3fbe088816f2210e	0.11731768188667877
3	0xbfb4aae457384dea	-0.0807326043071083
4	0xbfa69c6c021c19fd	-0.044162154443302605
5	0xbfad968bda59d9aa	-0.05778920212189871
6	0x3fb14e7724fdfc6a	0.06760353711250536
7	0xbfa037ff9de5ab12	-0.031677234673074164
8	0xbfab7c95c0000000	-0.05368488281965256
9	0xbf8d022da8f566c2	-0.014164311140734912
10	0x3fc1147e6e0daa8e	0.13343792318058373
11	0x3fbf5183df1ad9e1	0.12233757206818253

encoder.6.weight f8 [3, 12]
0	0xbfbae26b8d56625d	-0.10501739693280272
1	0xbfca873240000000	-0.20725086331367493
2	0xbfa84de1d8728103	-0.047469194099223365
3	0xbfcb5be6c63ad8a5	-0.2137421100539473
4	0xbfcedec7ff9732dc	-0.24117374401102765
5	0x3fc96875701c76b7	0.19850032781771684
6	0xbfc23aea39da4480	-0.14242294144472467
7	0x3fd158c8dff39867	0.27104398603694907
8	0xbfb4b19a00000000	-0.08083498477935791
9	0x3fce76853bf377b7	0.23799195697114126
10	0x3fc20b0616bbd4f4	0.14096141920132477
11	0xbfc43808a19701af	-0.15796001329546303
12	0x3fd23d7fa773ca1d	0.2850035796429056
13	0xbfcb68c080000000	-0.21413427591323853
14	0xbfb3ec0ab8307c87	-0.07782046315013434
15	0x3f8b099a4046e4ac	0.013201909147812017
16	0x3fd743819d1c04ba	0.3634952577850289
17	0x3fcacb3f4a0a6bf7	0.209327613022509
18	0xbfcffca30218b025	-0.24989736177792668
19	0xbf6bcf72a78ea5ee	-0.0033948172899342854
20	0xbfd1dc80e0000000	-0.2790834605693817
21	0x3fd99c21f2624825	0.40015457792572057
22	0xbfc086110a70d076	-0.12909138688849325
23	0x3fb692006644ca10	0.08816530701441416
24	0xbfca330ee9758cd8	-0.20468317412733117
25	0x3fc711d5c0000000	0.18023177981376648
26	0x3fd179d578cebe4b	0.27306114957443545
27	0xbfd0a27540e3faf0	-0.2599156507202869
28	0x3fb74ee1a6e24823	0.0910473854476384
29	0xbfcb536106197277	-0.2134820251257172
30	0xbfc82c2a27a21357	-0.18884779868326504
31	0xbfac49e4533707b4	-0.055251250417782144
32	0x3fce070080000000	0.23458868265151978
33	0x3fc396235b821445	0.15301935165567407
34	0xbfd22403aa23447c	-0.28344813933387747
35	0x3fafb647d17cdab0	0.06193756515715643

encoder.6.bias f8 [3]
0	0x3fd289cb274b1756	0.28966025197256806
1	0x3fa825c6a21cac03	0.04716320732980963
2	0xbfcf2f16b75a573c	-0.24362453415658958

decoder.0.weight f8 [12, 3]
0	0xbfd33fddb6aec8f2	-0.30077307548630394
1	0xbfcea382e8647a51	-0.2393649706582033
2	0xbfe3cdb5ef3c7778	-0.6188611672002784
3	0xbfd46a59c0000000	-0.31899112462997437
4	0xbfb44c1b80000000	-0.07928630709648132
5	0x3fe12eb700000000	0.5369524955749512
6	0xbfde92521f416b26	-0.47768071224497743
7	0x3fbb9c05c70e6fee	0.10784946546340254
8	0xbfcbe7f040572f0a	-0.21801570073727589
9	0xbfa06279f0cec29c	-0.0320013147787723
10	0xbfd41258bc6035b5	-0.31361978908611415
11	0xbfb4df367750fd00	-0.08153095639226038
12	0xbfd93c6eaffe14ac	-0.3943134993244921
13	0x3fd23856e38ff430	0.28468868468172825
14	0x3f77bef928909e34	0.005797360682698694
15	0x3fd3aa67544bb7f9	0.30727561218270655
16	0xbfc1a8ffa66e0c6f	-0.13796992899378632
17	0x3fe29522bb7f3b12	0.5807050382662473
18	0x3fd1c59ccdbeb674	0.27768631069452643
19	0xbfb7ec9082099b6a	-0.09345343756431893
20	0xbfd3fd5db5f3c0dc	-0.312339236915262
21	0x3f8eae938e8e7559	0.014981415546396691
22	0x3fc41239845bd803	0.1568061729701072
23	0xbfd96df8cc1a4a26	-0.39733714992431357
24	0xbfe630d1e5fef4f4	-0.6934594623668588
25	0xbfb143a63a092238	-0.06743849675070457
26	0x3fa45cc6dce1d96d	0.039770330870782945
27	0xbfd762e421fb4da1	-0.365410836396416
28	0x3fd61dc056832b81	0.34556587646937237
29	0xbfdc6b7396e8de0c	-0.44405832040089943
30	0xbfd0cb6640216a46	-0.26241451514002667
31	0x3fe3cf2d2d3a299f	0.6190400966018393
32	0xbfd8914bf386179a	-0.3838682058488928
33	0xbfe50feda3d95d37	-0.6581943702866856
34	0x3fd04960eea0196d	0.25447867682705444
35	0xbf9c51c4af87a627	-0.027655671323293298

decoder.0.bias f8 [12]
0	0x3fe238a9dbc66207	0.5694169323424497
1	0xbfc0d151c0000000	-0.13138791918754578
2	0xbfd9228c80d6c0bc	-0.39273369390413015
3	0xbfd9e54a5a8b2c64	-0.4046197780814451
4	0x3fc3b0b4e7fee974	0.1538301594535586
5	0x3fd30bdd52799ca7	0.29759915403560416
6	0x3fd07ca72c662a61	0.2576082166275793
7	0x3fe24cbf61b06a3f	0.5718686016073845
8	0x3fba66c4566e725f	0.10313059911863708
9	0xbfd53f792e757d63	-0.3319991067600851
10	0x3f99363345bb1981	0.02462082017043477
11	0xbfddea0cde63f834	-0.46741029470274786
