9_VAE_dagmm.pth (torch, 65351 bytes, 10 tensors)

fc1.weight f8 [32, 118]
-0.0776409348370132 0.33624566331225597 0.24533600616058557 0.1612103431183039 -0.017839223406487054 0.053998676117501726 0.1416353771247616 -0.049930307392207614
-0.05645703454580141 -0.04906432373842713 -0.007591490383594519 0.038076177061420365 -0.06863570383775792 0.057465629758907226 0.017770565900886017 0.07862247647863566
0.10637194404465497 -0.028996415076641045 -0.10858772081371222 -0.030927114727788016 0.17189020130583504 -0.04869861270141192 0.10220483094819287 -0.060342303581537096
-0.02887197254063027 0.2677349813206473 -0.018683115476416583 0.01905558189344945 -0.02539847197125287 -0.054108674507877964 0.01762104494430915 -0.08316868905672865
0.06570694103554146 -0.07966213469463623 -0.14639121954026174 0.08195714715880047 -0.08135802129052014 0.02323780026192363 0.03215659457147545 -0.002756224524495972
-0.10045421450884157 -0.059891561620350794 -0.0436177874608235 0.0623747898849127 0.010848363919102735 -0.09958295409836253 0.02325652029707694 -0.043075095431932275
0.05051997699804333 -0.08562441915273666 0.00500450594710998 -0.023804802664922676 -0.0277772510182831 0.12902731157628639 0.022030954311500903 0.003710133476918786
-0.009903814563624928 -0.0321390195633915 -0.07611545316076439 0.06929561959825913 -0.03666511923074722 -0.053059037774801254 0.057016730463588704 -0.01473802904144851
-0.1257014715635618 0.0285591892583069 -0.019165376833154515 -0.06295157309448854 -0.023112969672651137 0.08281511500632127 0.12098889124877993 0.014839940218828637
0.07499259461541521 -0.054241715788379566 -0.163762157436652 0.17635923137027132 0.1790000016284689 -0.025651261456438635 0.2630906678497017 -0.026688636825074205
0.2283603173240982 -0.0386950610302461 0.11404700438048442 -0.24355031910419478 0.08422323611799126 -0.06061189566959733 0.1271793489145832 0.0884394462295572
0.310690020543486 -0.017466742185675847 0.10027686266204773 0.0391520694186965 0.011285294205020353 0.0314790971124156 -0.006598600431876811 0.045078488711446665
-0.06616327911615372 0.01400861144065857 0.06077068261832191 0.0400859960412807 -0.04807160583988352 -0.13511411806153448 0.004301809188954192 0.014810134393042023
-0.022217472713404407 0.2334606480254141 0.0528462716167172 0.11265455861762011 0.15057428970741454 0.1630569922770991 0.1816862729568041 0.1045498888478113
-0.026802079381369727 0.19663383249024366 -0.1166381913818647 -0.1270553570881643 0.024181432539140367 -0.08308148739865934 0.12771294887127324 0.2340115726044181
0.3051756838553045 0.12549897262094437 0.10145832723821706 -0.061531080530054426 0.13452561039546437 0.028916870095433814 0.0027304206148941225 -0.046961328144028126
-0.025770908191262213 -0.03367174456888093 -0.014623085718338672 -0.0175974414835238 0.11566584811321258 -0.004990542231830469 0.06453376891741634 0.094303034941074
0.0039723272349660105 -0.04650732516602304 0.07677503451181916 0.013609907553943618 0.1746931639863639 -0.03945375265022448 -0.07989259188917754 0.338280594505342
-0.004895459150549432 0.027658264695706 -0.08379722545250083 0.05253516984997461 -0.033619612001214674 -0.03402886982006547 0.0434227021656158 -0.06654217244530755
-0.06215124480618404 -0.06082805435807258 0.06510950328511712 -0.05192914194409973 -0.05860607458668668 -0.1260276513651767 0.013855396113000466 -0.033079477401481906
-0.016349187203534978 0.02092607031306576 -0.006946796533099717 0.025885794823171045 0.08245512160766258 -0.027178280965009325 -0.03197297634892615 0.07617434114217758
-0.12569945478559136 -0.05174850948100885 -0.002954635338014141 0.15035243768786716 -0.031692145650218315 -0.03339360762299417 0.06375668749659849 -0.08342278253147349
-0.027322543805551575 0.10994367068137152 -0.09004105627536774 0.0603434219956398 0.03531700543292351 0.022990805666501395 -0.23316705288575532 -0.023100489508454322
-0.10880688357633594 -0.08718490636504546 -0.07833073366721596 0.07949297859409107 0.11866773296590849 0.17346221705052048 0.06623367069116082 -0.007160595051597208
-0.025799061601450405 0.2524129581784518 0.19845072145603587 0.08084793757093175 0.31564828370329046 0.05210812554479767 0.20889307599972215 -0.004954509741133734
0.0008156038958886862 -0.22685923201919178 0.040904203712269806 0.04817682714297358 0.12790809528550934 0.17513499840762273 0.26649850470935565 0.04880243854778977
0.02899742763161956 -0.01469263494164995 -0.006154702046261248 -0.052881077808742995 0.02103961859924024 -0.026084773202006764 -0.06376976519823074 0.007938504219055176
0.017055024166084152 0.15368886427835093 -0.0010448191825190786 -0.04875558280943782 -0.06285297704186929 0.07655929276417399 0.08400736753646965 0.26022206182154695
0.2869438042775527 0.22415257781434333 0.08311285591027688 0.10383498940872439 0.11352259175410238 0.17309841509468857 0.04237473074186686 0.16373671868480127
-0.03833960315017766 0.06216913048111342 0.1744305762533953 -0.10195684385140788 -0.08815609410771591 0.4260212083776956 0.10155830119245599 0.17128950843819643
-0.016738243284434736 0.02489669502212718 0.05553830851196213 -0.08496859669685364 -0.06852499395608902 -0.12113152123569722 -0.03720868881985541 -0.08349457383155823
-0.034591518342494965 0.03996020741724995 -0.0805923139618916 0.08290363361364245 -0.024044200619756418 -0.10605149790248221 0.004732681969701335 0.045651369367005805
00000000: dab1 f4bb 46e0 b3bf 1545 d687 0c85 d53f
00000010: 17d8 7e95 2b67 cf3f ba2a bc5f 8aa2 c43f
00000020: 88b4 7704 7244 92bf 1c68 e7e7 b6a5 ab3f
00000030: a08e 5aa8 1b21 c23f 1153 a81a 7790 a9bf
00000040: 4eb8 01ba efe7 acbf babb b683 f51e a9bf
00000050: fb96 ce2e 4118 7fbf 3994 787e b87e a33f
00000060: 6534 5207 1c92 b1bf 2fc7 ea90 226c ad3f
00000070: 47bc 807d 7232 923f 12ce 3445 9a20 b43f
00000080: 763c e214 313b bb3f 3658 d279 3cb1 9dbf
00000090: dd5e a4a5 67cc bbbf ac0f 4389 5bab 9fbf
000000a0: f242 8e84 7f00 c63f 5a86 d349 06ef a8bf
000000b0: 1f6b 6a86 182a ba3f fa60 e5b8 2fe5 aebf
000000c0: 6b02 5547 9d90 9dbf 481c 31e7 9122 d13f
000000d0: 6b9b d5a7 aa21 93bf ba8a 2774 4e83 933f
000000e0: 9a8a f099 0e02 9abf d5ea e1d6 21b4 abbf
000000f0: 5d53 074f 400b 923f 7dc2 8c0f 8b4a b5bf
00000100: 7b2b de8a 2bd2 b03f e035 3ed7 bc64 b4bf
00000110: da69 2c8e f2bc c2bf 2b73 b8c2 24fb b43f
00000120: 36c6 b518 e1d3 b4bf 52af 9f60 a6cb 973f
00000130: 1e08 1244 d476 a03f f73a 2ec6 3894 66bf
00000140: 6c93 0f0e 5eb7 b9bf 1e7a ee54 1baa aebf
00000150: 4713 5615 1255 a6bf ba17 4da5 96ef af3f
00000160: 4e31 fbc1 aa37 863f eb6e 17bb 447e b9bf
00000170: 85fa 60a8 8ed0 973f d8f0 4d5c f00d a6bf
00000180: 3fa6 0022 c1dd a93f 0000 0060 7beb b5bf
00000190: f0f1 01d6 9a7f 743f 7dfb bb43 4960 98bf
000001a0: 2005 c9c2 a371 9cbf e266 c189 f783 c03f
000001b0: f9fc 1151 488f 963f 7f24 4fbe b664 6e3f
000001c0: dc57 407d 7348 84bf e189 e68b 8674 a0bf
000001d0: 2fb3 0b66 4d7c b3bf 773a ee93 5bbd b13f
000001e0: 0000 0040 c5c5 a2bf 0000 00e0 8d2a abbf
000001f0: c3f8 5401 4c31 ad3f 8795 ecc5 f82e 8ebf
00000200: 5f58 b65e fc16 c0bf 9b74 75bf 9e3e 9d3f
00000210: 740c dbaa 16a0 93bf 522e ac23 981d b0bf
00000220: 4f0e 6e23 edaa 97bf 940e 9112 5f33 b53f
00000230: 6cc2 17c3 20f9 be3f 8bd2 500f 6764 8e3f
00000240: aabd 50f5 b632 b33f 52b0 c7f6 91c5 abbf
00000250: 34a4 418b 28f6 c4bf 28a0 8a75 f092 c63f
00000260: 5636 7dd8 78e9 c63f 0de8 3904 5344 9abf
00000270: 6e06 933d 7ad6 d03f aca3 5a19 4454 9bbf
00000280: 473b 4e2f e93a cd3f de83 48cb d6cf a3bf
00000290: ef5c 053a 2f32 bd3f 08cf bd27 a82c cfbf
000002a0: aca7 b06c a78f b53f 3d89 4cbb 8508 afbf
000002b0: 5a48 28b4 6947 c03f ed77 3bb1 f7a3 b63f
000002c0: bd61 5b65 58e2 d33f 9110 d239 cde2 91bf
000002d0: 89d1 ad95 beab b93f 2bb3 7273 bd0b a43f
000002e0: 0a58 4a8c be1c 873f 52fb 3539 071e a03f
000002f0: 3357 de50 2207 7bbf 0a9c 8915 8714 a73f
00000300: 0000 00a0 13f0 b0bf 0000 0000 8cb0 8c3f
00000310: a775 cdbc 551d af3f debd 0cd4 2686 a43f
00000320: 19a2 e56d d79c a8bf 9fad 265f 6b4b c1bf
00000330: 13a9 7b1c c69e 713f 8399 f096 c654 8e3f
00000340: 90bc d05a 2dc0 96bf 0c08 16dc 09e2 cd3f
00000350: f360 9ea0 aa0e ab3f da0b 02dd edd6 bc3f
00000360: 0ab5 f4b0 0446 c33f 0b6d 9b30 0ddf c43f
00000370: 29a5 3dec 7e41 c73f 5cdb 6611 c8c3 ba3f
00000380: ca90 a119 0172 9bbf 2f97 ea23 4c2b c93f
00000390: 671f 7321 00dc bdbf 90d5 bc95 5943 c0bf
000003a0: 5643 b477 04c3 983f 4cc0 470f d444 b5bf
000003b0: 6bc3 56dd e558 c03f 495a 9c59 17f4 cd3f
000003c0: 9759 6c97 ff87 d33f c955 8baf 5910 c03f
000003d0: 431f 6545 2cf9 b93f 23d5 2075 0081 afbf
000003e0: 0fbd 8f9c 2238 c13f 3145 734d 629c 9d3f
000003f0: c873 d967 1b5e 663f 9553 1cb1 500b a8bf
00000400: f18f 7a5f b063 9abf d6f9 7143 6c3d a1bf
00000410: 6f3a 6a57 b5f2 8dbf f9f7 a84e 1005 92bf
00000420: c90c e9ea 469c bd3f 6ce0 cc7a f670 74bf
00000430: 9fe8 fcfa 4885 b03f fc46 fc62 3e24 b83f
00000440: 99d2 0279 4945 703f 7b9a 39e1 cecf a7bf
00000450: 1ca6 6056 87a7 b33f b023 c4de 82df 8b3f
00000460: 4bfe 1379 585c c63f d6a3 ac42 4833 a4bf
00000470: 3150 5b45 d773 b4bf 8066 91a6 63a6 d53f
00000480: e84d 35cf 420d 74bf 0624 54b9 7252 9c3f
00000490: 4364 d026 bc73 b5bf ec77 cac8 e3e5 aa3f
000004a0: 624e 19fc 9636 a1bf bf79 fe65 3b6c a1bf
000004b0: eb18 691b 803b a63f 6617 7566 e808 b1bf
000004c0: dd4d b2b7 49d2 afbf fe61 4bd0 da24 afbf
000004d0: b9b4 4433 04ab b03f a4ef b7dc 7496 aabf
000004e0: 34bd 648b 9d01 aebf e5a7 8090 ac21 c0bf
000004f0: c27d 6dc9 3760 8c3f 955d 3713 cbef a0bf
00000500: a7e4 6b61 d7bd 90bf f07e 83ce a46d 953f
00000510: 8afe be7e 3e74 7cbf 8f33 c948 ce81 9a3f
00000520: 224f b162 c71b b53f a9f6 9f8f 9fd4 9bbf
00000530: b080 8c0f c35e a0bf 0000 0060 2980 b33f
00000540: 3eee b673 eb16 c0bf 41e4 acd7 c77e aabf
00000550: 5f80 bfc4 5134 68bf 6223 5fa9 bf3e c33f
00000560: d62b 37f2 f339 a0bf 23be 4589 f718 a1bf
00000570: a2fd b2b7 5b52 b03f 9fc8 b60a 325b b5bf
00000580: 087e 5ae0 70fa 9bbf 158b fab5 4425 bc3f
00000590: 0000 0040 ee0c b7bf 0000 0040 55e5 ae3f
000005a0: 8374 a70e 1215 a23f cb06 c9d9 e68a 973f
000005b0: 2313 5301 6bd8 cdbf bc73 d79b a7a7 97bf
000005c0: 3840 8a96 c4da bbbf e5ed 8a01 c051 b6bf
000005d0: 3654 5fa3 7b0d b4bf 76c0 52df a659 b43f
000005e0: 70d5 2d30 0261 be3f 016d a98a 0234 c63f
000005f0: c037 8399 b0f4 b03f 346c 1099 6d54 7dbf
00000600: 2104 62b7 116b 9abf e0a2 1dae 8827 d03f
00000610: 4ab9 424f d566 c93f 96f2 d04f 73b2 b43f
00000620: 8ed3 e2db 9433 d43f ba3b 248e eaad aa3f
00000630: 8bcb e320 02bd ca3f 61e5 e414 2e4b 74bf
00000640: b231 9807 c8b9 4a3f a8b7 282b b909 cdbf
00000650: 251e 6d52 65f1 a43f 941b 0212 a2aa a83f
00000660: 8e8c 12df 4a5f c03f 31db 45d9 d26a c63f
00000670: a236 8abe 4f0e d13f b13c 0e1b a2fc a83f
00000680: 323c 626d 80b1 9d3f b918 8814 2c17 8ebf
00000690: 96c6 1540 ac35 79bf a514 8887 3a13 abbf
000006a0: ed58 37e7 688b 953f 6406 4e7f f7b5 9abf
000006b0: 0000 0020 3753 b0bf 0000 0000 1042 803f
000006c0: d970 1a4c df76 913f 00de eaa2 13ac c33f
000006d0: e099 060e 4a1e 51bf f1f1 53e3 7df6 a8bf
000006e0: 8edf d9f8 2117 b0bf 2b84 a0ca 6399 b33f
000006f0: 5033 31c0 8181 b53f b428 4e6f 7aa7 d03f
00000700: cc5c ca8b 495d d23f e66a 831b 08b1 cc3f
00000710: 4b05 0356 e246 b53f e9e3 b00b ee94 ba3f
00000720: 47e7 f00a d10f bd3f 771a e9bf 1628 c63f
00000730: 961e 6d05 24b2 a53f d6e9 f325 53f5 c43f
00000740: 1ae0 579b 3fa1 a3bf 456a 79dc a1d4 af3f
00000750: 6023 37ba bd53 c63f 06f7 f1fd d719 babf
00000760: bcbf 22d5 6591 b6bf 599d 5875 ee43 db3f
00000770: 5648 428e b9ff b93f 87ea 718a d0ec c53f
00000780: 3f1e ff7d d423 91bf 3616 98eb 847e 993f
00000790: 89d3 7765 846f ac3f 0000 0080 80c0 b5bf
000007a0: 0000 00a0 da8a b1bf 35d8 38b2 7902 bfbf
000007b0: b275 376b 040d a3bf 0000 0080 e65f b5bf
000007c0: 0000 00c0 fab5 a1bf d336 ff0f aa75 a43f
000007d0: 5179 c6a8 b2a1 b4bf c414 172b 2c39 b53f
000007e0: 1d01 48fd 0a9f 98bf 5dd7 2ee3 3026 bbbf
000007f0: ff09 84a4 9362 733f 07d7 e5c4 9d5f a73f

fc1.bias f8 [32]
0.15337892066041692 0.3242560556038204 0.27821405221970436 0.3293637714277106 0.020866817685176828 0.05859850185394712 0.2764872338531744 -0.049799687865758814
-0.019736218840467598 -0.055706445628050744 0.04922862235086957 0.18640855316277705 0.29190992402680893 0.1640868161728351 0.2201227343685873 0.2758451765440747
0.3081526742032142 0.053172280948830745 0.10356218499074499 -0.030548693474860198 0.2211852947145342 -0.015710923607310637 0.18411690423516203 0.15416690880624592
0.22903391063420744 0.2795729016532046 0.011370498383309524 -0.023354686830904928 0.1723722277910593 0.052165258398152205 0.3306313718734634 0.01869145934624581
00000000: 34ee 10a4 eba1 c33f a24b 9678 9cc0 d43f
00000010: a18f e44f 42ce d13f 2b3b b1c8 4b14 d53f
00000020: 9c22 1e6e 1c5e 953f 3256 1d72 9f00 ae3f
00000030: fe4b ca82 f7b1 d13f cd08 783d 587f a9bf
00000040: 1cb4 dd39 bb35 94bf 043a 4c24 8e85 acbf
00000050: 6259 0c76 7e34 a93f e0af c347 3cdc c73f
00000060: daab 44f6 a6ae d23f 3a63 95fa cb00 c53f
00000070: 030e 9c54 fb2c cc3f 8e08 0187 72a7 d13f
00000080: 052d 78fe c5b8 d33f 2f39 75af 6539 ab3f
00000090: 9836 a325 0d83 ba3f f9e4 a31d 2848 9fbf
000000a0: 8cd8 93bb cc4f cc3f a15a 553c 8616 90bf
000000b0: 2857 2a89 2491 c73f f35f b9c3 bdbb c33f
000000c0: 01a9 ecb1 fb50 cd3f 92b1 5cbd 85e4 d13f
000000d0: cd74 9075 6a49 873f 8496 9680 4aea 97bf
000000e0: 27f6 8c0c 4b10 c63f 7d6a 9d9d 67b5 aa3f
000000f0: d799 4e7c 1029 d53f da32 6d9a da23 933f

fc2.weight f8 [1, 32]
-0.33611051632025085 -0.21385687233949996 -0.3658581173285017 -0.08624175265779811 0.6653307239173744 -0.6681861719048144 0.015845694867833278 0.5609964590259731
0.8397172952179713 0.7341231922037462 0.19442667313132492 -0.4239818955719931 -0.08622131758281126 -0.4005895735948601 -0.2605363325095218 0.2775582872501418
-0.10246627296199323 -0.9480535130504951 0.17243606331547082 0.6340964930609317 0.0904559395411548 -0.9509524476145379 0.40027885349901315 -0.319150189459442
0.36643391733487474 -0.42040790800623007 0.13978768028207822 0.48851535655953104 -0.2894703235426201 -1.0010597865243496 0.15224887541128101 0.4466064822655408
00000000: 4bfa dbae d582 d5bf 3e8b 5c78 a95f cbbf
00000010: 1ebb 392a 386a d7bf e107 3783 f013 b6bf
00000020: dbf8 87a8 634a e53f 410f 7ff7 c761 e5bf
00000030: 227e f594 da39 903f 0807 96d8 aef3 e13f
00000040: b118 1bce f6de ea3f bd01 b8eb ef7d e73f
00000050: 01d9 4825 f9e2 c83f a3fa e4f5 8422 dbbf
00000060: e077 3cab 9912 b6bf 3758 6d73 42a3 d9bf
00000070: 5815 e394 a0ac d0bf cf47 9ed5 83c3 d13f
00000080: c494 50cb 3a3b babf f71c 2d52 7456 eebf
00000090: ada3 4b8a 6212 c63f 4d8f 86ba 844a e43f
000000a0: 0ee7 0ed6 1e28 b73f 6cc7 d1d3 336e eebf
000000b0: b4c0 4332 2b9e d93f 7964 8fea f46c d4bf
000000c0: 144d c63e a773 d73f 4e75 f791 f6e7 dabf
000000d0: 4cfd 980d 90e4 c13f f415 01ea d543 df3f
000000e0: 43cc 3189 ae86 d2bf b967 4744 5704 f0bf
000000f0: f242 5f22 e47c c33f 46c6 e05a 3395 dc3f

fc2.bias f8 [1]
-0.006856353678344937
00000000: 96c2 176d 6815 7cbf

fc3.weight f8 [1, 32]
-0.3924529479928576 -0.45222133267105635 -0.26840153893958923 -0.5049603242046988 -0.472661694494619 0.12917464474939805 -0.5171883855398561 0.13122601347167953
0.14515654723077087 0.04517269829368288 0.014132638203333582 -0.2646177163666934 -0.45197874960984086 -0.4793634564945561 -0.2839525333762257 -0.46278830932616327
-0.38934344537926274 -0.18868985371952893 -0.4544808152971779 0.10163717360178201 -0.5766857612579721 0.03172987920454267 -0.24918575878618343 -0.33531508745445404
-0.5545169159410565 -0.2786277740266507 0.1465848525091953 0.06342755528454039 -0.36449541551108805 0.11487880982361023 -0.5150722565742616 0.04205267517883472
00000000: 7947 36f8 f21d d9bf da0b 98be 31f1 dcbf
00000010: 4743 fca5 7d2d d1bf 5d93 c78d a228 e0bf
00000020: 0549 fbd5 1640 debf 0ae6 5575 cb88 c03f
00000030: 9978 38a8 ce8c e0bf 9d66 1f96 03cc c03f
00000040: 3c06 945f 7d94 c23f c2d7 af3b e020 a73f
00000050: 94bb 1d97 92f1 8c3f 802d 6f25 7fef d0bf
00000060: 58eb 0347 38ed dcbf 2faa 2210 e4ad debf
00000070: 3ae7 1d3f 472c d2bf 6bba 61db 529e ddbf
00000080: a337 34c5 00eb d8bf bffc 6737 fd26 c8bf
00000090: 4617 97b3 3616 ddbf 7e72 add0 e404 ba3f
000000a0: d47f 95b2 3574 e2bf 27a5 fa12 e63e a03f
000000b0: 10cc 4ea6 51e5 cfbf 8239 9e69 cd75 d5bf
000000c0: b575 6142 9abe e1bf 5be9 4c96 09d5 d1bf
000000d0: 59d8 cedd 4ac3 c23f dac1 9ccb c93c b03f
000000e0: 195f 4a94 e453 d7bf 9220 329b b268 bd3f
000000f0: 2a07 22d0 787b e0bf 926e 34a1 ed87 a53f

fc3.bias f8 [1]
0.008600170749809295
00000000: e431 e260 f79c 813f

fc4.weight f8 [32, 1]
0.5387617705668273 0.7630783037749633 -0.36363496489154645 0.4001829857403688 0.33147673315285253 -0.2424029645188416 -0.12108951888705656 -0.623073383880299
0.08974659687427544 0.45972442155521587 -0.8104083174846687 -0.23156612989556458 -0.30450500184619195 -0.5299651258937811 -0.28719024236337615 -0.6464613910297339
0.6408783092597132 0.8782986176816341 -0.0013268019863791132 -0.6730249578007106 0.43490583335910654 -0.315729819727296 -0.7271747695879499 -0.739717735345663
0.4194512450317574 -0.7420567476956119 -0.13575667417039783 -0.8617122988217562 -0.21453453060990282 -0.1806801970463856 0.3396337101034513 0.6374604259659242
00000000: 306d 1d53 893d e13f 1605 e030 236b e83f
00000010: 100b 7996 cb45 d7bf c6e9 0a19 999c d93f
00000020: e0b0 1130 ea36 d53f 75eb 8772 0f07 cfbf
00000030: c91e 8203 b9ff bebf 19c4 d897 37f0 e3bf
00000040: 5097 800a a2f9 b63f 8c23 f0fa 1f6c dd3f
00000050: e118 806c ddee e9bf 64a1 617d f5a3 cdbf
00000060: c975 198c 027d d3bf 7d7f 776c 79f5 e0bf
00000070: bd95 ab2e 5361 d2bf 142e 93cc cfaf e4bf
00000080: 4c8f 5f3a 1382 e43f 6a11 e2b3 051b ec3f
00000090: a2ed f1c8 02bd 55bf a8aa e4a2 6b89 e5bf
000000a0: bd7c c746 7fd5 db3f 1172 86d8 ea34 d4bf
000000b0: 1b69 bb05 0445 e7bf f695 3287 c4ab e7bf
000000c0: 6562 eb08 4ad8 da3f f01e e4ca edbe e7bf
000000d0: 6c46 e385 7960 c1bf 7503 c0ab 2593 ebbf
000000e0: f586 6a14 de75 cbbf 10ae ac58 8720 c7bf
000000f0: a9dc 6007 8fbc d53f 6c92 4068 1366 e43f

fc4.bias f8 [32]
-0.5949662149420651 0.009123291378513799 -1.969474255683496 -0.4251767770966266 0.23157169541073883 0.8033175297081812 0.9261541135080502 0.7008376853655005
-0.33010634568427766 0.9909251274423899 -0.5686187758968262 0.8109729647661361 -0.13484337355193582 -1.1874376079407765 -0.20107331468597014 -0.49573284169458715
-0.6787245292414816 -0.8254150489845231 -0.04217658242783684 0.7466302656876874 -0.20342007385982777 0.6531828347262281 0.8029295028642688 -0.5197246781109416
0.5120290394385069 -0.5220293419408644 0.6598786555884852 -0.6476668928610009 -0.005048669099594506 0.7699731290957399 0.759462977101221 0.4458899953474542
00000000: 9ed5 6c96 f609 e3bf 9a1d d270 3baf 823f
00000010: ca97 e76f f782 ffbf 3084 29a8 1836 dbbf
00000020: 6bf4 3b2d 24a4 cd3f 00ce ccf6 c6b4 e93f
00000030: 9655 92f3 0da3 ed3f 8a5f 4e27 436d e63f
00000040: 74a0 ba5d 7620 d5bf 51ca e49c a8b5 ef3f
00000050: 1cca cb00 2032 e2bf fa8a 3393 7df3 e93f
00000060: b672 be33 8c42 c1bf 7256 c293 beff f2bf
00000070: ed57 5637 c5bc c9bf cf68 a83d 16ba dfbf
00000080: a0b9 0281 1cb8 e5bf f478 20d2 cc69 eabf
00000090: e084 5e44 2b98 a5bf 17a3 aa27 65e4 e73f
000000a0: 79f7 4942 ab09 cabf aaa5 2eb0 dfe6 e43f
000000b0: 5575 7936 99b1 e93f cf23 eda5 95a1 e0bf
000000c0: a9b3 5fb9 8a62 e03f 7c07 e6e0 76b4 e0bf
000000d0: 7c97 a2d7 b91d e53f 2547 71eb afb9 e4bf
000000e0: c1c2 bcca e9ad 74bf ca7a 08b0 9ea3 e83f
000000f0: 7585 254d 854d e83f cc60 e830 7689 dc3f

fc5.weight f8 [118, 32]
0.17365202646234404 -0.10505986844506784 0.1649482864411013 0.1630857581050078 -0.025341633545368135 -0.003804973878645673 0.025851606398727762 0.010330928404367369
-0.07823262238461681 0.06756339146725092 -0.3432380565468456 0.26179398544098925 -0.25075003076131364 0.9563934795294537 -0.059972415438280115 -0.08801720140720062
0.18929612043688804 -0.08128583634146938 0.1728779299071954 0.16751761838283577 0.029275132573247487 0.12020057605475605 0.24992448219002766 -0.31523877949976253
-0.13088913766263133 -0.1900578538074187 -0.03445912170668892 -0.14025970342608485 -0.10941159353937902 -0.03091322602457523 0.021086318038139693 -0.11748730995558773
-0.5156901708046928 0.2509349990473238 -0.8313059339648834 -0.3721402242315865 0.025439312587193764 -0.0018326717032109217 -0.1530278598422924 0.06562776214498571
0.043763205518922134 0.1404062158803115 0.19553058225209707 -0.0672873121714706 -0.16276694609069192 0.2549139338059777 0.13452350126103899 0.1747620264257285
-0.024855786842421235 -0.16749543957245597 0.1223974054354695 -0.0004165389820802421 0.10427425035849174 -0.12648414562098076 -0.10655348696939314 -0.07248751045177441
0.16460232639039984 0.06927151416305748 0.10470822891969192 0.05795051469051084 -0.2028572215874795 -0.013104623936918901 0.12101579546488221 0.20537921750678922
-0.05273744001908326 0.04220182353320299 0.6387102707671921 0.04807364471662825 0.336670027490069 0.03373906249232939 -0.079635144861924 0.09675150127977775
-0.06781095526682152 -0.2139740203960564 0.05257497110392366 0.04478439599018039 -0.015392403148625118 -1.0955273960678904 0.1724482323820372 0.12639642911205867
-0.11720725860759067 0.0578055115308205 0.07136753755804157 0.1353054666421747 0.0411993152783129 -0.05224265356783448 -0.022128933518023246 0.14692495216050586
-0.07809262031683183 -0.1433360684151486 -0.037639190788877445 0.06930886881046423 -0.08345897505621 0.007935197815402252 -0.2488500413294101 0.2073507188833278
0.038992317709685954 -0.07709464414576081 0.0016231556192180048 -0.02263163659071607 -0.11647326723480349 -0.014518141510811182 -0.1487349623021027 -0.07621908898626949
0.11673338702144603 -0.06178123860259284 0.015597909026922045 0.05816134532969147 0.08175130005493303 -0.06278338165782697 0.06743819879600169 -0.025930002787565826
-0.0871385180308452 0.02141549627641812 -0.1686712884610792 0.08873632965634119 0.10070329334947067 -0.011729108926849703 0.012136314395529492 0.10186570741647218
0.08005341444202935 -0.1400299913549809 0.04366453929478239 0.02533852943684976 -0.001542153372898714 -0.08644474186891361 0.13899091528007032 0.013045518803079373
0.021539321093143438 -0.0990785358493001 -0.011340688049816097 -0.11539549101630048 0.0016271634484748949 -0.11117173711616767 0.07900878457129469 0.134752034582694
0.029314756934889295 -0.008116707554611236 -0.11299140940622558 0.1182518991821624 -0.04633179240345829 0.0351798662309302 -0.10467716583193593 0.04796209786052809
-0.02596742911631033 0.10578029071193142 0.03634728401761982 0.09335319970994566 0.017097640252255797 0.022800259748563298 -0.17143485091216426 -0.08210730283793831
0.051396933887772576 0.17280953940868413 -0.06591904549725354 0.03902367854625992 -0.07229162700044374 -0.14787632451039312 -0.04903675978285969 0.02524759076995971
-0.040821715282559595 0.04683522812182965 -0.002986784167516119 0.12719773481651991 -0.11672302689042469 0.01981154136456322 0.02594595728063014 -0.030535967629902572
-0.04897046156481148 0.08506256765604943 0.14666579749350345 0.11504959225792127 0.15058628689673587 -0.11045644861188283 0.03323271446974396 0.0287089200684002
-0.1452204238974264 0.09211546620824143 -0.05566149062397394 -0.06349968308257313 -0.03697736892050484 -0.09186347036653761 0.10056306368996144 -0.050655224598982584
0.024796152210932863 0.05402100187050385 -0.16093171883420207 -0.13310035045813215 -0.14428982664988654 0.07990236943454773 0.06743977789593374 -0.08452061909093099
-0.0617591739370808 0.04450819510503232 -0.03575676897943686 -0.11244238196259343 0.06302885989108231 0.09031662449131095 0.12192867962438904 0.07997745613768793
0.035444110671431515 0.09204262607676386 0.11098809183158602 -0.1395847123540984 -0.10786146252947122 0.0069478549720714995 0.014365052606416436 -0.05984532386846044
-0.009252817960296119 0.0876589791579425 0.014437597733561146 0.13607669285390497 -0.16080630810360344 0.049413942587669055 -0.1504711362794029 0.003489089354284511
0.06267012524629156 -0.13142652774466604 -0.1783326611233779 0.045615047800174675 -0.06824875496380016 0.133748697141568 -0.1088837302242401 -0.008074019921883007
0.1091980348647899 0.07558626521669631 -0.0021519833759944713 -0.10824198384229029 -0.21460890861471218 -0.1153639959970363 -0.05952431727526142 0.18291184457749335
-0.17562312684090708 0.15181376462493054 -0.11879017936732433 0.20020833985841494 0.0784674909000834 -0.11793625631451025 0.0900848420308476 -0.1570706713995242
0.02348964465504506 -0.07539477428268115 0.024761630079520862 -0.10941705604641437 -0.17814854453978815 0.07921330772926838 -0.0024044871699487485 0.10338420922334404
0.06435265634113867 0.025048736194246798 -0.08393840286239107 0.08434263935713653 0.0006673304776438337 -0.1125892893376986 -0.02986530965475157 0.04847661194049211
00000000: 411b 45c7 3a3a c63f 0ef8 171b 34e5 babf
00000010: cddb e583 061d c53f 608f c07e fedf c43f
00000020: e6e1 373d 28f3 99bf 3f8e decb 9b2b 6fbf
00000030: c55b 20f0 d778 9a3f 1496 12bd 6128 853f
00000040: 904b 9f9a 0d07 b4bf 6339 c29c d54b b13f
00000050: 8c1f e7c0 9cf7 d5bf 118c 708f 3bc1 d03f
00000060: 42d0 65db 490c d0bf 08f9 957f c69a ee3f
00000070: 5d67 f055 b4b4 aebf ea84 8799 4b88 b6bf
00000080: 4c9f 44f3 da3a c83f 4af1 b608 26cf b4bf
00000090: 1f67 932f dd20 c63f a1a2 3aa2 3771 c53f
000000a0: d0e0 f3e3 4cfa 9d3f e593 1d07 77c5 be3f
000000b0: 66ea bc82 86fd cf3f d279 1846 df2c d4bf
000000c0: 80d1 d4aa f9c0 c0bf 38b4 39d5 d053 c8bf
000000d0: d9e7 8e41 a0a4 a1bf 60b2 94ab 07f4 c1bf
000000e0: 780c 0ef0 6502 bcbf 3b5a 287b b7a7 9fbf
000000f0: 6cab 77d9 a697 953f ae4a f4f9 a513 bebf
00000100: a431 4fac 8880 e0bf 7d1f 95ab 510f d03f
00000110: 7632 ebe6 0e9a eabf 0773 263b 25d1 d7bf
00000120: dafd 605e c30c 9a3f a3e4 e441 c806 5ebf
00000130: 6423 b3ba 6a96 c3bf 5354 1f24 fbcc b03f
00000140: 859c f180 2168 a63f 0237 aeb4 d4f8 c13f
00000150: 04ff 1168 2507 c93f 5453 36c5 bd39 b1bf
00000160: 0e27 2a1b 8cd5 c4bf d272 3f88 8250 d03f
00000170: 6dd3 3aeb 1038 c13f 7d64 0a22 9a5e c63f
00000180: 300e 6b9e cb73 99bf 11af 9895 7d70 c5bf
00000190: 7fe9 75b5 6f55 bf3f d31d 384e 5d4c 3bbf
000001a0: 93c9 1a9f b7b1 ba3f 64ca 73ea a130 c0bf
000001b0: 1fed cedd 1647 bbbf a342 c29e 8a8e b2bf
000001c0: cc9c 5864 b011 c53f 7bee df27 c7bb b13f
000001d0: 5208 d592 28ce ba3f 22a4 c39a b0ab ad3f
000001e0: 17e2 3cb6 39f7 c9bf 3931 e2d9 98d6 8abf
000001f0: 3b33 d223 e4fa be3f 2020 3cbf dd49 ca3f
00000200: 283e 50d8 6600 abbf 0d37 d037 7a9b a53f
00000210: 860f 9285 5070 e43f 9302 b7d7 1b9d a83f
00000220: c63f 6771 008c d53f 9127 0114 3f46 a13f
00000230: c64f cb06 f862 b4bf 72e6 d5d5 b4c4 b83f
00000240: ec77 2e0b 0f5c b1bf b4b8 e52d 8063 cbbf
00000250: a680 f54a 1beb aa3f a441 4cf8 faed a63f
00000260: 44a2 0a61 0d86 8fbf f1bc 1fbc 4787 f1bf
00000270: dbbb 2a9f c812 c63f 6609 af18 c22d c03f
00000280: 6bcb 927e 4b01 bebf 845a 1b1b af98 ad3f
00000290: 9ece ce97 2445 b23f 485d 1985 b051 c13f
000002a0: 32d4 799f 1318 a53f 296a 0f91 8cbf aabf
000002b0: fe64 0597 f7a8 96bf 5174 3fd4 6fce c23f
000002c0: 57da 51c2 e0fd b3bf 7913 1717 d658 c2bf
000002d0: 6fe6 f8aa 7145 a3bf 551b dddc 39be b13f
000002e0: ee91 6c40 915d b5bf 61e6 d538 5440 803f
000002f0: bf1c 8f72 51da cfbf 3cf7 33e6 778a ca3f
00000300: b578 b712 cdf6 a33f 5684 4d7f 79bc b3bf
00000310: 224a 4113 0298 5a3f 585f 0c6c bf2c 97bf
00000320: 53ba a129 31d1 bdbf afac e6f7 afbb 8dbf
00000330: 54fe 6d4b bf09 c3bf 9fe5 861e 1883 b3bf
00000340: 84c1 9b3f 3de2 bd3f 9ae8 9b5e caa1 afbf
00000350: 82be 40e9 cbf1 8f3f a82e 2ae8 52c7 ad3f
00000360: 2034 2438 a7ed b43f 13e1 f35a 9212 b0bf
00000370: 2a79 543a a143 b13f 58c5 d407 658d 9abf
00000380: 3b15 2abd b54e b6bf b90f 8aa0 f1ed 953f
00000390: 4e75 db51 0597 c5bf bb4f d791 6cb7 b63f
000003a0: 9e14 89e7 b0c7 b93f 242e 045a 6e05 88bf
000003b0: e7d6 618b ecda 883f 010a f0f9 de13 ba3f
000003c0: b42e f66c 617e b43f 4e16 aab4 80ec c1bf
000003d0: cb30 88d0 325b a63f 3b3e 0aed 57f2 993f
000003e0: 353b 5493 4244 59bf 21f7 3c1b 3e21 b6bf
000003f0: 47d5 c84d 74ca c13f 88d9 f2e4 9bb7 8a3f
00000400: 903f b15e 670e 963f a453 35ff 355d b9bf
00000410: 6806 4e62 c939 87bf e457 0514 8f8a bdbf
00000420: b6f9 f872 d1a8 5a3f 7748 273f c075 bcbf
00000430: 6996 d471 eb39 b43f a712 cdfe 8d3f c13f
00000440: 065a 4d09 b004 9e3f 3a6b fc0b 7e9f 80bf
00000450: 8bf1 2048 01ed bcbf 0162 ada7 c145 be3f
00000460: be9c 46fa ccb8 a7bf 2506 e16d 1803 a23f
00000470: a4d9 e26b 1fcc babf b25c 84f3 7c8e a83f
00000480: 3e54 43ab 3497 9abf 514b 2bc9 6a14 bb3f
00000490: 47e6 4e78 1c9c a23f 2c2e bbcb fee5 b73f
000004a0: 808b e336 0b82 913f 0c6f d787 f358 973f
000004b0: 1cfc 07c3 93f1 c5bf 77a3 73f4 fb04 b5bf
000004c0: d347 53ec b250 aa3f 473b 197c 9f1e c63f
000004d0: 1d20 9810 12e0 b0bf 4669 405e e9fa a33f
000004e0: 55d5 bd3d b481 b2bf 28fa cf84 9ced c2bf
000004f0: ee6c 239f 581b a9bf 559a a322 81da 993f
00000500: fcde 3578 95e6 a4bf 86fc 2a7a c9fa a73f
00000510: 62eb 3a8a bd77 68bf 12c4 94ef 0348 c03f
00000520: 903b 2f6f 8fe1 bdbf 8502 fa08 7a49 943f
00000530: 2d54 efb7 9391 9a3f b0e0 4919 d244 9fbf
00000540: c622 c805 a812 a9bf 1d4f 3212 a9c6 b53f
00000550: d692 d6e1 f1c5 c23f dc78 2adc e373 bd3f
00000560: 7249 b954 6946 c33f 7e9b 6bb2 df46 bcbf
00000570: 2016 9cdb e003 a13f 2064 3003 df65 9d3f
00000580: d8e3 ac35 9596 c2bf faf7 d112 e194 b73f
00000590: edce c0b3 a97f acbf 4f61 25e6 8341 b0bf
000005a0: df50 699c b2ee a2bf 36dd eb48 5d84 b7bf
000005b0: 1de4 bb3d 80be b93f 585f 0c4a 7bef a9bf
000005c0: d618 409b 2964 993f c074 a908 a4a8 ab3f
000005d0: 6f17 a41a 6999 c4bf 73e3 26aa 6e09 c1bf
000005e0: b4aa 4dcb 1678 c2bf 8e23 984f 7b74 b43f
000005f0: c335 83b8 bb43 b13f 074e d5ae 24a3 b5bf
00000600: 5852 9300 e69e afbf 9c9c c234 c7c9 a63f
00000610: 982e c112 b64e a2bf acb3 3621 06c9 bcbf
00000620: 98b5 efcb a822 b03f d0ac 7984 fd1e b73f
00000630: f163 6ecb b736 bf3f 3955 870e 6779 b43f
00000640: 33d6 5600 bb25 a23f ba70 d604 1b90 b73f
00000650: d37f a930 b769 bc3f bb8c 4a6f e9dd c1bf
00000660: 3514 100e cf9c bbbf 744d 1e9e 5a75 7c3f
00000670: 51f3 32b9 6c6b 8d3f 23c9 aad9 0ba4 aebf
00000680: 5152 4834 24f3 82bf bf21 afa0 d170 b63f
00000690: 8c9f c990 7591 8d3f ff15 c708 f66a c13f
000006a0: 2dd2 2515 4d95 c4bf aecb c2c6 c84c a93f
000006b0: 70ef a760 a342 c3bf 2d54 6c95 2695 6c3f
000006c0: d079 5e3a 260b b03f 21be 3e9f 95d2 c0bf
000006d0: 0db2 aac9 9ad3 c6bf 41b3 0305 db5a a73f
000006e0: ebee 8f1a c078 b1bf b885 0d64 ad1e c13f
000006f0: 552d 61dc cddf bbbf 230b 189c 1c89 80bf
00000700: 2420 8804 67f4 bb3f 10eb 2119 9f59 b33f
00000710: 68f8 1547 09a1 61bf dd23 a824 bfb5 bbbf
00000720: b518 f701 4e78 cbbf 0172 f1ad 7e88 bdbf
00000730: d027 07a8 f879 aebf 8974 41c3 a769 c73f
00000740: 74fa 1991 d17a c6bf abc7 1229 a26e c33f
00000750: 44f8 777f 0869 bebf 3907 0a48 6da0 c93f
00000760: 960c 370b 7216 b43f bb2c e20b 1231 bebf
00000770: f447 63da cc0f b73f 162e 694a e41a c4bf
00000780: 9331 5a5e ab0d 983f d85a d569 124d b3bf
00000790: 0e7c 8cdd 1c5b 993f 070d 5895 c102 bcbf
000007a0: 116f 504e 92cd c6bf d8ed 1ac6 5247 b43f
000007b0: a54c 4638 93b2 63bf 5a7e 8935 6377 ba3f
000007c0: db5a 656a 6a79 b03f efab 0a3b 60a6 993f
000007d0: 3025 2cb7 fc7c b5bf 437d b2ad 7a97 b53f
000007e0: f58d de49 f9dd 453f 06d6 95d3 a6d2 bcbf
000007f0: e91e 0201 0395 9ebf 0d83 cf2d edd1 a83f

fc5.bias f8 [118]
0.13536283174292374 0.18066402850872268 0.12786412857867197 0.07052057465637174 0.06773664528987781 -0.13554310270801498 -0.16316263069883394 -0.10518114734229496
0.07781957284539408 -0.05137419672883139 0.12966019287019356 0.11323469674017637 0.06759114690303698 -0.09104587241481715 0.20327333082269464 0.005414260855908474
-0.1414758389776798 -0.04826703331919035 -0.019752133896261886 -0.1255789456431485 -0.033260697983636005 0.054936353079483774 -0.15086625689716548 -0.04888912103042648
0.13613495750904417 -0.0652038439946796 0.03355348384083101 0.10251003612018293 -0.09661108004424912 -0.1280605291903702 0.017883473538252623 -0.08137244850051709
-0.1138443802326059 0.1967109740275019 0.1426587771313226 -0.1342313719423081 -0.033974921317062125 0.10747839123396424 0.0034779218164641265 -0.15842908426241137
-0.08992752554177606 0.06284165096305357 -0.01149158562830677 -0.04409787912179404 -0.021549659086778514 -0.043832516492646724 0.14189364645884814 0.13693522727472493
-0.06973410574011044 0.04353630362101037 -0.06309605425422796 -0.022115647539922616 -0.06387567955882008 -0.15885036149166265 -0.07738770204436494 0.0537343469072246
-0.12324930447984585 0.028736958019413377 0.11083099267281735 0.04787951171297791 0.0801670092034878 -0.044211257481750345 0.00481541500270527 -0.007307752364077355
0.050596303419415775 -0.10360202893728575 0.1372343903717975 -0.023992971521041375 0.08919341038029019 0.11071351769401583 0.1895154291025391 -0.07834855522337039
0.14982976824038494 0.12144554925827834 -0.0799517908610168 -0.031646331009041455 0.14406097664109072 -0.04583646232250266 0.20276626368235953 -0.09613967838270898
0.004222794400799998 -0.15777303423668648 0.06273552845524553 0.12075700614364174 -0.05419988168226025 -0.09172457016956027 -0.09247520056790369 -0.02063282633974676
-0.10076055604114646 0.08602239621106086 -0.11125363450824895 -0.050747506391661555 -0.041624959828168516 -0.1640927774662252 -0.06970369604940878 -0.18915864725335196
0.009884743816129289 0.04708318162665229 0.15446435828554064 0.05561270973949789 0.07022526184103732 -0.08118005158785822 0.000983497525133392 -0.14156196620484574
-0.03554960405341967 -0.007272593026589487 0.014436873289861022 0.016680262510350086 -0.0022458817818038984 0.02626429569610767 -0.06168526055576539 0.024733963202733973
0.02204342982888466 0.11740254928218877 -0.07145242295491278 -0.07672072251643736 0.015184936244080776 0.0378027593854432
00000000: f403 b7bb 9153 c13f 0119 01b7 ff1f c73f
00000010: 02d9 490d da5d c03f 5020 d8e9 a20d b23f
00000020: 53c2 4254 3057 b13f 4926 aaf4 7959 c1bf
00000030: d3f1 6359 83e2 c4bf 8dac fdd3 26ed babf
00000040: 7f12 5cc8 fbeb b33f f300 9efd b74d aabf
00000050: 733a fc87 b498 c03f 5783 45f7 f2fc bc3f
00000060: dd9a 7245 a74d b13f 041a 7544 c84e b7bf
00000070: b927 044a dc04 ca3f 1124 ee94 432d 763f
00000080: 78a9 ca5a e11b c2bf 1f67 29e3 74b6 a8bf
00000090: 4b50 7144 e739 94bf fb3e 4d8c f812 c0bf
000000a0: 37e8 29d4 8b07 a1bf 2400 ad1f 9e20 ac3f
000000b0: c0bc b8e3 954f c3bf 7967 e9af fe07 a9bf
000000c0: 2dfe 2bcb de6c c13f b0d7 87f9 32b1 b0bf
000000d0: 90c6 8617 ec2d a13f ffe0 a504 193e ba3f
000000e0: 58a6 38f5 80bb b8bf defa 6394 4964 c0bf
000000f0: 2955 f197 0b50 923f 1aec 1a25 d3d4 b4bf
00000100: d0b3 eec1 e724 bdbf c730 1b40 d32d c93f
00000110: d918 228f a442 c23f 4a72 4b5c 7e2e c1bf
00000120: ddc4 e12f 2965 a1bf dc66 602f b483 bb3f
00000130: 1e57 b60e bb7d 6c3f 6636 d27b 6747 c4bf
00000140: 574e 3685 7d05 b7bf ad84 b6f3 6316 b03f
00000150: 4241 9f83 e688 87bf 9a58 4d49 ff93 a6bf
00000160: 3c16 1224 1d11 96bf 5db2 ac31 3771 a6bf
00000170: 2b85 862d 9229 c23f cb5a 68f1 1787 c13f
00000180: 02d0 9127 18da b1bf e25f 7bf0 634a a63f
00000190: 1a4f 8721 1027 b0bf 2ec3 a7fb 7ba5 96bf
000001a0: 3504 b712 285a b0bf 8440 c869 3555 c4bf
000001b0: cfa4 6431 aecf b3bf b6e2 467d 1183 ab3f
000001c0: 29e5 fe33 448d bfbf eb05 859b 386d 9d3f
000001d0: 26b8 e980 6b5f bc3f 1450 e9d1 a983 a83f
000001e0: ac42 bf3a d385 b43f fd90 ffa1 dba2 a6bf
000001f0: c0a9 401f 54b9 733f a35e 93d6 bbee 7dbf
00000200: ae42 f838 c2e7 a93f 37bb 159e a985 babf
00000210: 6345 4481 e590 c13f 3722 1110 9d91 98bf
00000220: 2a20 9a1c 61d5 b63f e88d b899 b857 bc3f
00000230: 9699 0aa5 0a42 c83f ba8b 5fa2 a60e b4bf
00000240: aba4 4731 9f2d c33f b91e 4f36 0e17 bf3f
00000250: f133 0177 b877 b4bf 4fc7 71a9 f233 a0bf
00000260: afd2 a60f 9770 c23f 986a 4775 e077 a7bf
00000270: 71b9 9fb3 3ef4 c93f f86e 8026 9c9c b8bf
00000280: 1731 96bd eb4b 713f 6e5e 1e23 e831 c4bf
00000290: ef36 0383 6f0f b03f 1a5a 2660 eee9 be3f
000002a0: 0775 8b3e 16c0 abbf e92f 1eed 427b b7bf
000002b0: ef53 216a 74ac b7bf eabc 6989 c520 95bf
000002c0: 736a ec9c 71cb b9bf 2e37 7352 9005 b63f
000002d0: 3529 c641 1e7b bcbf 9b89 9cc0 93fb a9bf
000002e0: 738f 51e2 dd4f a5bf 4c16 5dfc fd00 c5bf
000002f0: fb49 f1f6 19d8 b1bf 38b8 dabd 5936 c8bf
00000300: 575e 5bdb 733e 843f 1463 8e6a 491b a83f
00000310: 7df4 9df3 7cc5 c33f 486b 25e3 4479 ac3f
00000320: b3d5 f562 48fa b13f 3f4e a842 37c8 b4bf
00000330: 327a 316d 161d 503f d087 9ad7 b31e c2bf
00000340: b022 97c5 8e33 a2bf ae15 4dd3 ddc9 7dbf
00000350: 9572 1755 1491 8d3f adf1 e177 a114 913f
00000360: 7284 b699 f465 62bf c2de 440c 07e5 9a3f
00000370: 9fe9 76e1 3595 afbf 128f 392c dc53 993f
00000380: 28b1 d388 8d92 963f ba4f a2ed 170e be3f
00000390: 04b2 cfbb b44a b2bf e832 2222 f8a3 b3bf
000003a0: 763b 7ba4 4719 8f3f 51a0 841e e25a a33f
